Eyantra/Task1/task_1a_trained_model.pth (torch, 23185 bytes, 5 tensors)

weight f4 [64, 8]
000000 47 bd 1d 3f c7 11 dd 3d 2f 06 5d 3d 96 07 27 3e
       0.6161694 0.107944064 0.053960975 0.16311488
000010 44 5a 87 3e c4 19 22 be 7d 9d 29 bd 1a aa c1 be
       0.26436055 -0.15830141 -0.04140996 -0.3782509
000020 e4 39 6a 3e 87 cf f3 bd 42 30 e0 3c 3d 4d c7 bd
       0.22873646 -0.11904817 0.027366761 -0.09731529
000030 7e 87 27 3e 3f 73 4b 3e df 8a 3d be 7c bc 1b 3e
       0.1636028 0.19868182 -0.18510006 0.1520862
000040 3e 38 a8 be 38 24 ea bc 46 74 c9 3e 05 2e 3a 3b
       -0.3285541 -0.028581724 0.39346522 0.0028408777
000050 c0 43 67 bd a0 6e 9a be 1e 6d bb 3d 31 f9 5a 3d
       -0.056461096 -0.30162525 0.09151672 0.053460304
000060 d1 2f fd 3d c0 b3 2d 3f e1 60 aa 3c 38 53 aa 3d
       0.12362636 0.678524 0.020798149 0.08316654
000070 2a fc de bc c2 8f b7 3c 83 90 84 3c bb 14 db 3b
       -0.02721985 0.022407416 0.01618219 0.006685821
000080 bd f5 a6 3e 06 fb 95 be 4c 53 a7 3e f6 af fa 3b
       0.32609358 -0.29293078 0.32680738 0.0076503707
000090 ac 34 56 3e 71 f4 b9 3e 4f f8 3b 3e 22 e0 71 be
       0.2091853 0.36319306 0.18356441 -0.23620656
0000a0 c3 eb 02 be 5a d9 4a 3f 35 13 3e 3d 5c ef 88 3e
       -0.12785248 0.792379 0.046405036 0.26745117
0000b0 96 d8 be bb 5c e9 29 3e 4f 2e df 3c d3 71 a1 3d
       -0.005824159 0.16592926 0.027243761 0.07883038
0000c0 e3 97 a9 be 4c 7e 29 be 00 9f bd 3e c1 3b c3 3c
       -0.33123693 -0.16552085 0.3703537 0.023832204
0000d0 5e 4e 1d 3e 63 ff bf be 7f 7d 34 3e 5e 3d d2 3d
       0.15361926 -0.37499532 0.17625998 0.10265611
0000e0 60 56 06 bf b8 c2 9c be e6 8e af 3d 8e 17 da 3d
       -0.5247555 -0.3061731 0.085721776 0.10649024
0000f0 d9 09 e8 3c 38 98 ba 3e 23 a5 c9 3a 75 83 25 3d
       0.028325008 0.3644426 0.0015384298 0.04040857
000100 66 88 a9 3e 63 6f 00 bd 0f ee 7e 3e 48 d9 ab 3c
       0.33111876 -0.031356227 0.248955 0.020977631
000110 3b 1e 80 be c4 b7 88 be 98 9e 1d 3e db e2 41 3e
       -0.25023064 -0.26702702 0.1539253 0.18934195
000120 55 2b 6d 3e 57 dd 14 3e 06 21 02 bf 7d 62 4e 3d
       0.23161061 0.1453756 -0.5083164 0.050386894
000130 50 36 5f be b3 ea fa 3d 76 e7 4b be d5 35 1e be
       -0.21798062 0.122517966 -0.19912514 -0.15450223
000140 ea b4 ff be 40 1e 83 be be e4 fb bd 5a a1 58 3e
       -0.49942714 -0.25609016 -0.122994885 0.211553
000150 52 3a 0e 3d 85 b8 fd 3d 29 fc 0b bd 4e 2e 22 3e
       0.034723587 0.1238871 -0.034176026 0.15837976
000160 06 af 9d be d7 82 86 be 93 5c 41 bc 7c fe 03 3f
       -0.30797595 -0.26271698 -0.011801857 0.5156019
000170 60 fb 22 bd 9f 8d 8c 3e 80 90 c3 3c a8 ac fe 3d
       -0.03979051 0.27451798 0.023872614 0.12435275
000180 72 77 0c bf 48 21 20 be f4 ca 2c 3e 8f 79 ce 3e
       -0.5486976 -0.15637696 0.16874295 0.40327117
000190 e7 ae 23 bd 32 01 bd 3d 8e 71 2f 3d ee a7 09 3e
       -0.03996172 0.092287436 0.042832904 0.13442966
0001a0 8e 8e 44 3e bf 4a 87 be fe 45 71 3e 05 93 4b be
       0.19195005 -0.26424214 0.23561856 -0.19880302
0001b0 88 3b 50 bd 08 83 4e be 95 51 3a 3e ff 31 89 bd
       -0.050838023 -0.20167172 0.18195184 -0.06698989
0001c0 c9 10 cb be 36 95 80 be 4a 34 87 3e 5a 33 3a be
       -0.39661244 -0.2511384 0.2640708 -0.18183652
0001d0 08 a6 ae 3a cd ff 27 be c0 db 73 3c 70 d7 6f bd
       0.0013324628 -0.16406174 0.014883935 -0.058555067
0001e0 c2 34 e0 3e 8b 7b 8c be ee 43 83 3d 01 8d 46 bc
       0.4379025 -0.27438006 0.06409441 -0.012118579
0001f0 6f bf 8b 3e 30 65 d8 bd 1a bc 1c bd 04 79 85 bd
       0.2729449 -0.10566175 -0.038265325 -0.065172225
000200 8a 3c ef be 15 92 c1 be ab f6 d6 bd 5a c6 0b 3f
       -0.46725875 -0.37806764 -0.10496267 0.54599535
000210 c2 2c 00 3e 87 c9 5b 3c ec bb a0 3d 84 19 a3 3d
       0.12517074 0.013414747 0.07848343 0.07963851
000220 56 a0 0c bf 32 92 77 3d a8 57 2f 3e 8c 48 ed bd
       -0.54932153 0.060442157 0.17123282 -0.11586103
000230 31 5c 97 be 45 8b 33 3e 6b f4 58 bd ca 02 33 3e
       -0.29562524 0.17533596 -0.05296747 0.17481533
000240 85 11 ce 3e 76 70 6f 3d 6b 36 ef bd 26 06 ae be
       0.4024774 0.05845686 -0.11680301 -0.33989066
000250 88 d8 c9 3d 77 06 5d bd 03 ad a6 be 95 a5 e8 bb
       0.09855753 -0.053961243 -0.32553872 -0.007099817
000260 56 7a e9 3e 95 df c1 3e 28 e8 a3 be 9e b7 15 be
       0.45601147 0.37865892 -0.3201306 -0.14620826
000270 90 49 77 3e bf 92 21 be a9 67 5e be 34 3a bc 3c
       0.24149156 -0.15778635 -0.2171923 0.022976972
000280 f1 e7 ca be 5a a5 20 be f1 0e c9 3e 2d d6 22 be
       -0.39630082 -0.15688077 0.39269212 -0.15902014
000290 a6 2b ca bc fd 1d 64 be 80 48 cc 3c 55 95 07 bd
       -0.024679016 -0.22277065 0.024936914 -0.0331014
0002a0 2e df 6a 3e bb 70 11 3f de be af be 0d f7 c9 be
       0.22936699 0.5681264 -0.34325308 -0.39446297
0002b0 ec 7d e1 ba 66 1a a5 3d da c4 46 3b 3b a3 c4 bd
       -0.0017203665 0.08061676 0.0030329735 -0.09601446
0002c0 07 40 93 3e 26 65 f8 3c 8b 24 bc 3e b6 92 c7 3c
       0.28759786 0.030321669 0.3674663 0.02436195
0002d0 05 26 90 3d 42 1e 8c 3e 6b 76 98 bd b0 a6 83 bd
       0.07038502 0.27366835 -0.074444614 -0.064282775
0002e0 13 53 0e 3d 99 78 46 bd 15 93 d3 be f6 2a a9 be
       0.034747194 -0.048454855 -0.41323152 -0.3304059
0002f0 8f 98 2d bc f5 97 45 3d 59 37 19 be d0 ef 41 be
       -0.010595455 0.04824062 -0.1496252 -0.18939137
000300 43 66 54 bb be 9e c1 be 16 3c 9b 3e 25 e4 8e be
       -0.0032409586 -0.37816423 0.3031928 -0.27908435
000310 52 c4 b0 bd 6a 6a 45 be 82 cf 56 3d b3 b9 02 bd
       -0.08631195 -0.19278875 0.05244399 -0.031915378
000320 e0 88 01 bf b1 48 8b be b5 5f 90 bd 38 dd e6 3e
       -0.5059948 -0.27203897 -0.07049505 0.45090652
000330 53 c2 33 3d dd 82 8d 3d b7 ea 81 3d a5 cc d4 3d
       0.043886494 0.06909726 0.063435964 0.10390595
000340 17 a7 8c bd b7 30 86 bc 1a 97 70 3e 12 ab 01 3f
       -0.06867807 -0.01638065 0.2349514 0.5065166
000350 f3 24 a7 3d cc 08 ac 3e 6f 87 d5 bb ee 2f 58 be
       0.081613444 0.3360046 -0.006516389 -0.21112034
000360 44 2e aa be f2 95 d9 3e 0d 78 74 3d 0b 5e 2d 3b
       -0.33238423 0.42497212 0.0596848 0.002645376
000370 f8 85 1d be c3 8d 68 3e 0d 34 21 3e 4d b6 30 3d
       -0.15383136 0.22710328 0.15742512 0.043142606
000380 7b fb 66 be 44 18 9c bd 73 90 ac be cc 4d f3 3e
       -0.2255687 -0.07621816 -0.33703956 0.47520292
000390 d9 d9 25 3e 67 63 54 be 32 e8 82 3d c1 6b 53 3d
       0.16196384 -0.20741044 0.06391944 0.051616434
0003a0 69 fe f9 be a0 f7 10 3e 4c 23 bb 3e e7 43 96 3d
       -0.48826912 0.14156961 0.36550367 0.0733717
0003b0 47 7f 39 bc 38 cf 2b 3d ac be 85 3c 30 90 15 bc
       -0.011321849 0.041945666 0.016326271 -0.009128615
0003c0 f6 3d 29 3d 9a f1 21 3f f2 7a 7f 3b da d9 66 3d
       0.041318856 0.6325928 0.0038983193 0.056360103
0003d0 56 71 28 3c f2 a5 02 3c 90 32 ab bc 72 bf 06 3b
       0.010280928 0.007974135 -0.020898134 0.0020560888
0003e0 0d 60 31 3d 5d 5f 12 3f fb 32 33 3c 3b ff a4 3d
       0.04330449 0.5717676 0.010937448 0.08056494
0003f0 83 8b 91 bc 8f 6d 32 3b 93 3e 57 3c a4 81 8c 3c
       -0.01776672 0.0027225947 0.013137477 0.017151661

bias f4 [64]
000000 fa e8 e2 be cb 8f 70 3d 87 b8 f0 be bf f8 34 bf
       -0.44318372 0.05873088 -0.47015783 -0.70692056
000010 4a 63 fb bd 72 66 c8 bd 66 f9 15 be 7c 8b c2 bd
       -0.12274797 -0.09785165 -0.14645919 -0.09499261
000020 32 b6 7e be 03 3b 28 bd ac 60 09 3d 1a 8f 27 3e
       -0.2487419 -0.041071903 0.03353946 0.16363183
000030 2c ae a8 bd a5 f4 b2 3d f0 e7 b2 be 61 1a 40 bd
       -0.08236346 0.087380685 -0.3494258 -0.046900157
000040 75 16 25 be 41 53 f4 bc 3c f8 87 be 8e cb 0a 3c
       -0.16121848 -0.029824855 -0.26556575 0.008471383
000050 89 85 0f bf 90 10 83 be a9 52 e2 bd 10 37 c1 bd
       -0.56063133 -0.25598574 -0.110509224 -0.094343305
000060 ec 85 e7 bd d2 e6 81 bd 89 19 a0 be 5e cd 4b bb
       -0.113048404 -0.063428536 -0.31269482 -0.003109775
000070 8d 12 26 bb c2 fe 8e 3e f9 03 2f bf 1e 0d 18 bf
       -0.0025340647 0.2792874 -0.68365437 -0.59395015
000080 4d 0a 7a 3e cc 95 b7 bd fd 71 dc bd d9 ca 36 be
       0.24417992 -0.08964118 -0.10763929 -0.17850818
000090 b7 4f 76 3e d0 e8 a2 3e 1e 4e 0d bf e6 41 55 be
       0.24053846 0.31818247 -0.5519732 -0.2082592
0000a0 ca 25 28 be 19 28 82 3d 78 13 33 3d e4 99 72 be
       -0.16420665 0.06355304 0.04371974 -0.23691517
0000b0 61 7b 29 bf 16 95 a9 3e 9f b5 45 be ff e9 95 be
       -0.66203886 0.33121556 -0.19307564 -0.29280087
0000c0 9e ff 1c bf f0 62 10 be 5b 80 b9 bd 8d 3f 99 3e
       -0.6132754 -0.14100242 -0.09057685 0.29931298
0000d0 53 10 a8 3b f9 e9 a5 be 18 01 8a bd 0e d8 cc be
       0.005128899 -0.3240507 -0.0673849 -0.40008587
0000e0 f1 b5 0e bf 5b 9b ed be 9b 39 13 be f4 aa b4 bd
       -0.5574637 -0.4640759 -0.14377443 -0.08821669
0000f0 5b 82 e8 3e ce 8a a6 be 3a 40 9c bc 74 90 42 3e
       0.45411953 -0.32527775 -0.019073594 0.19000417

weight f4 [32, 64]
000000 93 ed 4d 3e 35 aa 34 be 8e 8f 18 3d d0 0e a1 be
       0.20110159 -0.17643054 0.03724628 -0.31456614
000010 e7 fd d2 3d 36 93 18 bd bf c9 71 bb 21 b3 6f 3e
       0.10302334 -0.037249766 -0.0036893932 0.23408176
000020 5f f4 1a 3c e4 50 ba bc bb 4f 11 3d aa 48 f2 3d
       0.009457677 -0.02274365 0.035476428 0.11830266
000030 42 35 0d 3e 1d 78 1a bb 64 e2 a8 bd 0d 41 dc 3d
       0.13789847 -0.0023570128 -0.082463056 0.10754595
000040 89 19 5b 3d 9b 76 73 3d ea bf 2f 3d 11 0a 10 3d
       0.05349115 0.059439283 0.042907633 0.03516585
000050 09 9a 90 bd ae 6b 31 3d de e4 b0 3c ba de 63 be
       -0.0706063 0.043315582 0.021593507 -0.22252932
000060 e9 71 b5 3d 30 fb 9f 3d f8 2e a9 3d 00 b3 ee bc
       0.08859617 0.07811582 0.08260912 -0.029138088
000070 12 36 9d 3c 88 bd 20 3e 91 61 d1 be 76 39 4d be
       0.019190822 0.156973 -0.4089475 -0.20041451
000080 2b 9b 0f 3e f7 21 09 3d 1d 80 9d bd 0f 8c 06 3e
       0.14024036 0.033479657 -0.07690451 0.13139366
000090 b1 4c 25 3d 1a 58 19 3d 73 18 de bd ad 5a a2 3c
       0.04035634 0.037437536 -0.10844507 0.019818628
0000a0 a8 1d 04 be 56 86 e7 bc 6e 43 93 bd 9b b2 4a 3e
       -0.12901938 -0.028262299 -0.071905956 0.19794695
0000b0 db 2f b5 be a7 e5 b3 3d 9e 64 f9 bb f7 fc fa 3d
       -0.35388073 0.08784037 -0.0076108715 0.122552805
0000c0 90 a8 41 be c5 a5 bb 3c c0 3e d3 3d 42 36 55 bc
       -0.18911958 0.022906194 0.10314703 -0.013013424
0000d0 5b 4c de 3d 9a b2 3e bd 22 89 9c bd 18 a8 66 3e
       0.108544074 -0.046557046 -0.076433435 0.2252506
0000e0 7d 7d 84 bd 9a ee 93 bc e9 eb ed 3d e9 99 ee 3c
       -0.064692475 -0.01805811 0.11617262 0.029126124
0000f0 8c 8c 22 3d 4d 37 bb 3c b8 1c 39 bd 05 e1 38 bd
       0.039684817 0.022853518 -0.045193404 -0.04513647
000100 b0 83 0b be e4 cf cd bd 58 b5 75 3e 89 dd ce 3d
       -0.13624454 -0.100494176 0.23994958 0.10100848
000110 5a de 1e bc a0 d4 67 be fd 4b 54 3e 3c 92 cc 3c
       -0.009696567 -0.22639704 0.20732112 0.024972074
000120 db c9 8a 3d a5 8d b3 3d 9a 78 7d be 96 8d 6f be
       0.06776782 0.08767251 -0.24753037 -0.23393854
000130 8e fc cd 3c c2 d7 6e 3d cf f9 1c 3e bb b3 f4 bd
       0.025144842 0.05831123 0.1532967 -0.11948343
000140 ec df 98 bd 74 43 3e 3e 77 08 87 be ef 30 ab be
       -0.07464585 0.18580419 -0.26373646 -0.3343577
000150 d5 a9 00 3e e8 c8 86 be 99 76 cc bd 5c 2a 25 be
       0.12564786 -0.26325154 -0.09983558 -0.1612944
000160 6d db 30 3b aa db 50 be 9c cc 9c bd cd 61 07 3d
       0.0026986257 -0.20396295 -0.07656214 0.033052254
000170 d5 e2 92 be 08 15 7a 3e 5a 91 9b 3c de 16 3f be
       -0.28688684 0.24422085 0.018990207 -0.18661067
000180 0d 24 f4 bd a3 7e fe be f9 2e ff bd e6 63 2f be
       -0.11920939 -0.4970599 -0.12460131 -0.17127952
000190 13 dd db bd d4 18 37 be bf 50 95 3e 7a b7 82 3d
       -0.10735526 -0.17880565 0.29163167 0.063826516
0001a0 9b cd 5a bc c1 e9 b0 be d3 bd 78 ba d9 b8 b8 be
       -0.013354684 -0.3455334 -0.0009488735 -0.36078528
0001b0 01 cd 2e 3d 10 6d 10 be 77 1d 7d be 1e 9e c0 bc
       0.042675976 -0.14104104 -0.24718271 -0.023512896
0001c0 0e c6 0d be 8f e6 d6 3d 2c 9b a2 3d 95 19 cf bd
       -0.13845083 0.10493194 0.07939753 -0.10112301
0001d0 6c d5 84 3e 5b 35 57 be 7a f9 87 be c5 bd 1c bd
       0.25944078 -0.21016447 -0.26557523 -0.038266916
0001e0 40 e6 29 3e c1 74 98 be ff 75 68 3e c8 e8 31 be
       0.1659174 -0.29776576 0.22701262 -0.17373955
0001f0 40 c1 d9 3d c1 72 75 3e 2f 68 d6 bd b2 e8 62 bd
       0.10632563 0.23969556 -0.1046909 -0.055397697
000200 f1 e7 62 3d d3 26 a4 bd af df d7 3c df 8b 12 bf
       0.055396978 -0.08015218 0.026351778 -0.57244676
000210 bd af 51 3d 22 04 8f 3d d8 7e 0c bd 80 a6 6a bc
       0.051192988 0.0698321 -0.034300655 -0.014321923
000220 1b a1 2a be f5 b0 58 3d 4c ab bb 3d 5b 26 1d bd
       -0.1666302 0.052903134 0.09163532 -0.038366657
000230 84 f7 00 3e 5a 83 52 bd e7 9b 4a be 4e bf 77 bc
       0.1259442 -0.051394798 -0.19786035 -0.015121294
000240 43 15 21 be ab 75 01 3e 66 56 0e 3d ff c1 ac 3d
       -0.15730767 0.12642543 0.034750365 0.08435439
000250 4b 22 26 be 9d 7e 30 bd 2e ca 9e 3d eb 0e ac bc
       -0.16224019 -0.043089498 0.077534065 -0.021003207
000260 59 fe 17 be 56 4c 18 3d 4b 55 05 3e 43 13 65 3e
       -0.1484312 0.037182175 0.13020818 0.22370629
000270 3b 1f 83 3d 73 0e d3 3d 60 bd 08 bf c3 da 67 be
       0.06402441 0.1030549 -0.53413963 -0.22642045
000280 1f 97 f9 3c 0b b3 22 3e 59 a6 28 be 1f ed 20 3e
       0.030467568 0.15888612 -0.16469707 0.15715455
000290 24 ad 17 bc 89 72 b1 bb 5e dd a6 bd 53 9c 2a be
       -0.009257589 -0.005415265 -0.08147691 -0.16661195
0002a0 74 84 54 be fb 32 3d 3c 21 1b 38 be ee 93 3a be
       -0.20753652 0.011547799 -0.17979099 -0.18220493
0002b0 76 d3 c4 be 67 8f a7 3d 3d 44 ab 3d 5f 10 19 3d
       -0.38442582 0.08181649 0.08362625 0.03736913
0002c0 b7 82 9c bd c8 97 5b 3e 20 1d 8d be e3 2b f4 bc
       -0.076421194 0.21444619 -0.27561283 -0.029806083
0002d0 7e f8 02 3e bf 0a f5 3d 40 43 7a 3c bd b3 43 be
       0.12790105 0.1196494 0.015274823 -0.19111533
0002e0 72 a1 94 be 77 3c 21 3d 3f 05 d6 bc d3 c2 2b bd
       -0.29029423 0.039364304 -0.026125548 -0.041933846
0002f0 71 a8 b7 3d 66 78 4b bd c6 2d a1 bc 60 e6 de bd
       0.089676745 -0.049675368 -0.019675147 -0.10883784
000300 eb 59 89 bd fa d1 68 3d ec ab 1c bc 7b 63 09 bf
       -0.067066036 0.056840874 -0.009562474 -0.5366742
000310 22 91 e1 3d 7e 2b 68 3c 67 06 9f 3b 03 91 97 3c
       0.1101401 0.014170526 0.004853058 0.018501764
000320 5c fd 32 be 1c c4 e0 3b ef f2 3f bc 5d 9c 69 bd
       -0.17479461 0.0068593156 -0.011715635 -0.057033885
000330 ef 23 17 3e 31 86 47 bd 19 b6 71 be e1 3d 82 bd
       0.14759801 -0.04871196 -0.23604621 -0.06359459
000340 9e 58 d0 3d cf 9d 5d 3e 17 a2 b4 bd 71 18 91 bd
       0.101731524 0.2164223 -0.08819979 -0.0708474
000350 42 7a 48 be 58 e2 e0 3d b2 f3 ec 3d ef a8 58 bd
       -0.19577888 0.10980672 0.11569919 -0.052895483
000360 84 34 39 be 2e af e9 bc a7 6b 00 3e 14 1d 62 3d
       -0.1808644 -0.028525915 0.12541066 0.055203512
000370 fc a2 7e bc 6c bc cb 3d 48 64 f8 be 95 31 be be
       -0.015541788 0.09948048 -0.4851401 -0.37147203
000380 56 9c c4 bd 0c f1 c3 3d 86 37 04 be 6d 45 53 3d
       -0.09600131 0.095674604 -0.12911806 0.05157988
000390 a1 d3 5f 3d c8 ed 98 bd 3c de d4 bd 09 a0 4a be
       0.054645184 -0.07467228 -0.1039395 -0.19787611
0003a0 b0 26 f0 bd 2b 7b 85 3d db 9b c8 bc 10 1c 34 be
       -0.11726129 0.06517633 -0.02448838 -0.1758883
0003b0 06 23 9f be f7 f6 1f 3e a1 45 37 3e 9c d3 88 3d
       -0.31081408 0.15621553 0.17897655 0.06680986
0003c0 49 63 a7 bd 56 4a 3c 3c 99 2e 8b be bb bb 0d 3d
       -0.08173234 0.011492332 -0.2718399 0.03460286
0003d0 b4 1b 20 3e d8 53 cc 3d 14 92 79 3d f2 93 0f bd
       0.15635568 0.099769294 0.060930327 -0.0350532
0003e0 47 b7 98 be bb a3 d5 bd f4 3a 5a bc 11 4b 0a bd
       -0.2982733 -0.1043162 -0.01331972 -0.033762995
0003f0 86 0d cf bb 35 e4 a8 be 52 65 24 3c f4 88 59 bd
       -0.006318751 -0.32986608 0.010033922 -0.053109124

bias f4 [32]
000000 ad 70 c8 3d 4f 51 24 bd 5a 0d 5d 3e f5 18 97 3e
       0.09787116 -0.040116604 0.21587124 0.29511228
000010 e4 cb 80 be 3f b4 77 3e 2b 0d 8b 3d bd f0 0f be
       -0.25155556 0.24189852 0.06789621 -0.14056678
000020 bd 2f 09 be bd 61 31 3e d1 22 db 3d eb 7f c9 3d
       -0.13397117 0.1732244 0.107 0.098388515
000030 af 2a 46 3e 2c 5b 9c 3d b1 e6 b0 bd c1 31 61 3e
       0.1935222 0.07634577 -0.08637751 0.21991636
000040 09 88 8f 3e b8 6f 9b 3d 11 86 4b be 73 73 8f bc
       0.28033474 0.07589668 -0.19875361 -0.017511105
000050 f1 aa 05 3e 78 ef 3f bd e7 a5 82 bd 0a cd 42 3e
       0.1305349 -0.046859235 -0.063792996 0.19023529
000060 68 c3 7c bd 6a f5 2b be ff cc 09 3e 11 d0 75 3e
       -0.06170979 -0.16792837 0.13457106 0.24005152
000070 ea 32 81 bc c7 54 37 3e 12 4d 0a 3e ff 52 89 bc
       -0.015771348 0.17903434 0.13505962 -0.016763208

weight f4 [1, 32]
000000 5d 96 47 be f2 5d 10 3f 83 f1 6d be c5 95 37 be
       -0.19490953 0.5639335 -0.2323666 -0.17928226
000010 2f b7 78 3f be ab 47 be 58 93 42 be 6d 13 58 3f
       0.97154516 -0.19499108 -0.1900152 0.8440464
000020 ae 27 6b 3f eb 0e 50 be e5 bf 37 be 83 35 1f be
       0.9185742 -0.20318191 -0.17944296 -0.15547757
000030 e7 07 4a be 56 27 fd 3e 4e 06 a0 3d a2 ea 82 be
       -0.19729577 0.49444073 0.078137025 -0.25569636
000040 de 05 12 3f db 07 10 be 0f f3 3b 3f ed e6 1e be
       0.570402 -0.14065497 0.73417753 -0.15517779
000050 1b 1d 3c be 41 16 d1 be 64 7c 37 3f 95 55 90 be
       -0.18370478 -0.4083729 0.7167418 -0.28190294
000060 4c 93 54 be 3b 9d 78 be 83 f6 93 be 3c 65 45 be
       -0.20759314 -0.24278729 -0.2889901 -0.19276899
000070 56 7b 29 3f 0b ee 2f be 4a e4 07 3f 6c 33 24 3f
       0.6620382 -0.1718065 0.53082716 0.64140964
