Eyantra/Task1/Part a/task_1a_trained_model.pth (torch, 738949 bytes, 11 tensors)

weight f4 [512, 8]
0	0xbe86d35a	-0.26333123
1	0x3df50fb8	0.11965889
2	0xbd735bed	-0.05941384
3	0x3ea68109	0.3252032
4	0xbdfa28c5	-0.122148074
5	0x3d2e475d	0.042548526
6	0xbe6f2c36	-0.23356709
7	0xbc8aa138	-0.016922578
8	0xbec8fa44	-0.39253438
9	0x3a2daff0	0.0006625643
10	0x3e8b294e	0.2717995
11	0xbc8469d3	-0.016163742
12	0x3e614532	0.21999052
13	0x3eb8467d	0.35991278
14	0x3e857dd7	0.2607257
15	0x3ddd3f0d	0.108030416
16	0x3dad569c	0.08463785
17	0xbde81b57	-0.1133334
18	0x3e785018	0.24249303
19	0x3eb59e51	0.35472348
20	0x3e08c854	0.13357669
21	0xbdb05b15	-0.086111225
22	0x3e1a5498	0.15071332
23	0xbc390f4d	-0.011295152
24	0x3d2b6e82	0.041853435
25	0xbd1af02b	-0.0378267
26	0x3e7a365d	0.244348
27	0x3d28f50e	0.041249327
28	0x3e261070	0.16217208
29	0x3da2a6ee	0.079419956
30	0xbe5fd9e6	-0.21860465
31	0x3ddeef12	0.10885443
32	0x3d11314c	0.035447404
33	0xbea34847	-0.3189108
34	0xbe1e727e	-0.15473363
35	0xbe3ab031	-0.18231274
36	0x3e537aff	0.20652388
37	0x3e08b0e2	0.13348725
38	0xbd7a445b	-0.061100345
39	0xbe7afbe5	-0.24510153
40	0x3dfd0bdb	0.12355777
41	0xbe81e117	-0.25367042
42	0xbe365a3b	-0.17807858
43	0xbea03010	-0.3128667
44	0x3daf8728	0.08570701
45	0x3e16ff1f	0.14745758
46	0xbda92de3	-0.08260705
47	0x3e56717d	0.2094173
48	0xbd8d12ff	-0.06888389
49	0x3ed6b0a5	0.41931644
50	0x3e910689	0.28325298
51	0x3de7027f	0.11279773
52	0xbea9fd34	-0.3320099
53	0xbdcd1685	-0.10014061
54	0x3e1f8515	0.1557811
55	0xbd42f0de	-0.04759299
56	0x3e044e4f	0.12920497
57	0x3ea9ec8c	0.33188283
58	0xbe3d1f5d	-0.18468995
59	0xbe07043b	-0.13185208
60	0x3e8580eb	0.2607492
61	0xbe57c02a	-0.21069399
62	0x3dc8f3e0	0.098121405
63	0xbcb44e17	-0.022009892
64	0x3e5d7096	0.2162498
65	0xbe40787f	-0.18795966
66	0x3cdec2cd	0.027192498
67	0xbd4f0277	-0.05053946
68	0x3d28b4c6	0.041188024
69	0xbd8b59a4	-0.06804207
70	0x3e59cf33	0.21270446
71	0xbe9bafa9	-0.30407456
72	0x3ec79755	0.38982645
73	0x3dc64f85	0.09683136
74	0xbeafdec9	-0.3434966
75	0xbe22b71b	-0.15890162
76	0x3ca7c483	0.020479446
77	0xbced3640	-0.028956532
78	0xbe712276	-0.23548302
79	0xbe410d17	-0.1885265
80	0x3ed12f5c	0.40856445
81	0xbe9e9c2f	-0.30978534
82	0xbea7b73a	-0.32756978
83	0xbeac5a17	-0.33662483
84	0xbd8ff300	-0.070287704
85	0xbdf299e9	-0.11845762
86	0x3d9a7917	0.07542627
87	0xbe4a536a	-0.19758382
88	0x3bcddd02	0.0062824497
89	0xbebc2e23	-0.3675395
90	0xbc019182	-0.007908227
91	0x3e04f5d8	0.12984407
92	0xbca0d62f	-0.01963338
93	0x3eac409d	0.33643046
94	0x3df59867	0.11991959
95	0xbd6e11ab	-0.05812232
96	0xbb69deff	-0.0035685895
97	0xbc8bc924	-0.017063685
98	0x3eadb30b	0.3392566
99	0xbe0682ad	-0.13135786
100	0xbe80bd0b	-0.25144228
101	0x3ccc86c0	0.024966598
102	0xbe82c132	-0.2553802
103	0x3dc353a9	0.09537441
104	0x3d41e1be	0.047334425
105	0x3dc2c13d	0.095095135
106	0x3e4dcd74	0.20097905
107	0xbdb3fba6	-0.087882325
108	0xbe15e593	-0.14638357
109	0xbea422d0	-0.3205781
110	0x3e09f105	0.13470848
111	0xbd5dbeef	-0.054137167
112	0xbe10fadf	-0.141582
113	0x3e037810	0.12838769
114	0xbeae7a76	-0.34077805
115	0xbd9d5684	-0.07682517
116	0xbe554c2c	-0.20829839
117	0xbea303c2	-0.31838804
118	0xbc9f0468	-0.01941128
119	0x3e0d3fea	0.13793913
120	0xbeb64ae0	-0.35604
121	0x3d41bafb	0.04729746
122	0xbe828f42	-0.25499922
123	0xbea7f0ad	-0.3280081
124	0xbc922b95	-0.017843047
125	0x3d60e953	0.054910015
126	0x3d8d7ec5	0.06908945
127	0x3ec10604	0.37699902
128	0xbea5cf7c	-0.3238486
129	0x3c6f4262	0.014603229
130	0xbe2b10b8	-0.16705596
131	0x3e1376b9	0.14400758
132	0xbd6913c9	-0.056903634
133	0xbe9b42ef	-0.30324504
134	0x3d1a3bea	0.037654795
135	0x3d2dcb9d	0.04243051
136	0x3e81f2c3	0.25380525
137	0x3ea592a3	0.32338437
138	0xbe7d7a57	-0.247537
139	0x3e256a60	0.1615386
140	0xbd30a5e9	-0.043126974
141	0x3e7fd083	0.24981885
142	0x3c2bbac0	0.010481536
143	0x3de48ade	0.11159299
144	0x3eb8cb17	0.36092445
145	0xbe7cb6ff	-0.24679182
146	0x3d27f79b	0.04100762
147	0x3d9dffe3	0.07714822
148	0x3dfba7ee	0.122878894
149	0x3bc9be74	0.006156737
150	0x3dbaa977	0.09114354
151	0xbe8a2dc8	-0.26988053
152	0xbead2246	-0.3381521
153	0x3e3dc127	0.18530713
154	0x3dab0663	0.083508275
155	0x3e5e462c	0.21706456
156	0x3e6f2f81	0.23357965
157	0x3e9e3df1	0.30906633
158	0x3e83ec6a	0.25766307
159	0xbe588402	-0.21144107
160	0xbe5d7cad	-0.21629591
161	0xbe194736	-0.14968571
162	0x3ea49f88	0.32152963
163	0xbd7bb382	-0.06145049
164	0x3db0c309	0.0863095
165	0xbe5505ae	-0.20802948
166	0x3ad91783	0.0016562793
167	0xbe974215	-0.29542604
168	0xbebe28f9	-0.37140635
169	0x3ea6e40f	0.3259587
170	0x3e97fce4	0.29685128
171	0x3c3b1fbe	0.011421142
172	0x3e1db0fc	0.15399545
173	0xbd5c5779	-0.053794358
174	0x3d22c567	0.03973904
175	0xbea5ad8a	-0.32358962
176	0xbe6cdaba	-0.23130313
177	0x3dbf4bfb	0.09340664
178	0x3ea94c5c	0.3306607
179	0x3d8994c9	0.06717832
180	0x3eab8dbe	0.33506578
181	0x3dc9a5ed	0.09846101
182	0xbde34448	-0.11097008
183	0x3e3796a6	0.17928562
184	0x3e805f4f	0.25072715
185	0xbdc2fd8d	-0.09521017
186	0xbe48ffff	-0.19628905
187	0xbeaf33c7	-0.3421919
188	0x3e0a5f84	0.13512999
189	0xbde94058	-0.11389226
190	0xbe6e24f4	-0.23256284
191	0xbe71ea4b	-0.23624532
192	0x3d1c77a1	0.038200025
193	0x3db15751	0.086592324
194	0x3c5533b6	0.013012817
195	0xbeecffb1	-0.46288827
196	0x3dea5c40	0.114433765
197	0x3c2d0e17	0.010562441
198	0xbe1a1a30	-0.15049052
199	0x3de12d35	0.10994951
200	0xbf090170	-0.5351782
201	0xbedc4866	-0.43023986
202	0xbe33e833	-0.17569046
203	0x3e389230	0.18024516
204	0xbda65a29	-0.081226654
205	0x3eecbbc6	0.4623701
206	0x3dc9e3ea	0.09857924
207	0x3e6738b5	0.22580226
208	0x3e2106e1	0.1572528
209	0xbe29e0ed	-0.16589709
210	0x3e71915a	0.23590603
211	0x3deeb1f8	0.116550386
212	0xbe51b4cf	-0.20479129
213	0x3e1fa253	0.15589266
214	0x3ca3d398	0.019998357
215	0xbe02efed	-0.12786837
216	0x3e7eb01d	0.2487187
217	0x3e96a6e5	0.29424205
218	0x3e7fa3fd	0.249649
219	0x3e48bcfc	0.19603342
220	0x3e207ae9	0.15671887
221	0xbe9a5dcf	-0.30149695
222	0x3dcd7457	0.10031956
223	0x3e8220c4	0.25415623
224	0xbe72622d	-0.23670264
225	0xbd2f3aa4	-0.042780533
226	0xbed0ceaf	-0.40782687
227	0x3df8eb98	0.12154311
228	0x3d2a889f	0.0416342
229	0xbed07f08	-0.40721917
230	0xbc715dae	-0.014731808
231	0x3c90d3e4	0.017679162
232	0x3e36734f	0.17817424
233	0xbe5de3ad	-0.21668883
234	0x3d9c6483	0.076363586
235	0xbe849187	-0.2589228
236	0x3ea85f2d	0.32885113
237	0xbe1b5676	-0.15169701
238	0x3c63ff9d	0.013915923
239	0xbe2110df	-0.15729092
240	0xbe9f77a0	-0.31145954
241	0xbda7c0a5	-0.08191041
242	0x3d8dd196	0.06924741
243	0xbe545abd	-0.20737739
244	0x3d95cad0	0.07314074
245	0xbe17224d	-0.14759178
246	0x3cacca4d	0.021092558
247	0xbe76aa69	-0.24088444
248	0xbe797ee7	-0.24364816
249	0x3d28c474	0.041202977
250	0x3e622f1d	0.22088285
251	0xbe87476a	-0.26421672
252	0xbe96bfe9	-0.2944329
253	0xbe1f0a40	-0.15531254
254	0x3dacbc33	0.08434334
255	0x3dbe57c8	0.09294087

bias f4 [512]
0	0x3e3c5d15	0.18394883
1	0xbed4c1a7	-0.41553995
2	0x3e01ab5f	0.12663029
3	0x3d8def01	0.06930352
4	0xbe1cae7c	-0.15300936
5	0xbeb7a38b	-0.3586696
6	0xbeaa238c	-0.33230245
7	0x3ce6cc46	0.028173577
8	0x3d59b23b	0.05314849
9	0x3e2449cf	0.1604378
10	0xbe206668	-0.15664065
11	0x3e95bc2e	0.29245132
12	0xbd979d92	-0.07403101
13	0xbd9e42bf	-0.077275746
14	0x3e56be8c	0.20971125
15	0xbe511b74	-0.20420629
16	0xbe63b007	-0.22235118
17	0xbdd98b78	-0.10622305
18	0xbea79497	-0.32730553
19	0xbe7f3f90	-0.24926591
20	0xbe5efb67	-0.2177559
21	0xbe1a12b8	-0.15046203
22	0x3d1bae47	0.038008
23	0x3e6a2421	0.22865345
24	0xbed48afc	-0.41512287
25	0xbe808344	-0.25100148
26	0x3dc95469	0.09830553
27	0xbd99a259	-0.075016685
28	0xbd59f8c5	-0.05321576
29	0x3d008677	0.031378236
30	0xbe5dd82d	-0.21664496
31	0xbe9c21e1	-0.30494598
32	0xbd4cc2a5	-0.049990315
33	0x3d731b2d	0.05935209
34	0xbe5712e4	-0.210033
35	0x3ea94ce4	0.33066475
36	0x3cc66870	0.024219722
37	0xbeab21f9	-0.33424357
38	0xbe773fac	-0.24145383
39	0x3eb0066e	0.34379905
40	0x3dfcc592	0.12342371
41	0xbeafe8a8	-0.3435719
42	0xbe86cb95	-0.26327196
43	0x3b1221c8	0.0022297967
44	0xbeb3fde4	-0.3515464
45	0x3dc28e35	0.0949978
46	0xbceacbf7	-0.028661711
47	0xbeb27c74	-0.34860575
48	0xbe1eb67f	-0.15499304
49	0x3ea13ede	0.31493276
50	0xbe15ce5b	-0.146295
51	0xbe441b4a	-0.19151035
52	0xbe829f21	-0.2551203
53	0x3de18e7a	0.110135034
54	0xbe6ea133	-0.2330368
55	0x3e24ab55	0.16080983
56	0xbd8cedbb	-0.06881281
57	0xbe948747	-0.29009458
58	0xbec92327	-0.39284632
59	0xbe8de02a	-0.27710086
60	0xbd636643	-0.055517446
61	0x3e8b471d	0.27202693
62	0xbe7579aa	-0.23972192
63	0xbe507075	-0.20355399
64	0xbeea259e	-0.45731825
65	0xbe18367e	-0.14864537
66	0xbe4d07c8	-0.200225
67	0xbee24b22	-0.44197947
68	0x3e1ce70f	0.15322517
69	0x3eb33f89	0.3500941
70	0x3cd45eb1	0.025924059
71	0xbe965e72	-0.2936893
72	0x3e2691cf	0.16266559
73	0x3c645990	0.013937369
74	0xbeabc99b	-0.3355225
75	0xbe888d63	-0.2667037
76	0x3e7862bf	0.24256419
77	0xbe4b9d62	-0.19884256
78	0x3df28862	0.11842419
79	0x3e7aefb1	0.24505498
80	0xbcac9575	-0.02106736
81	0xbecfd17d	-0.40589514
82	0x3e30f3f5	0.17280562
83	0x3e4f9581	0.20271875
84	0xbea0cc16	-0.31405705
85	0xbe13f0fb	-0.14447396
86	0x3ea2ef15	0.3182303
87	0xbdc339e3	-0.095325254
88	0xbe781678	-0.24227321
89	0x3e440430	0.19142222
90	0x3d5d5748	0.054038316
91	0xbda91821	-0.08256555
92	0x3e7b2bfb	0.24528496
93	0xbdd69df5	-0.10479347
94	0xbe74de4c	-0.23912925
95	0xbd943fe3	-0.07238748
96	0xbe683e02	-0.22679904
97	0xbe463e45	-0.19359691
98	0xbe7cf48b	-0.2470266
99	0x3e41312e	0.18866417
100	0x3cc26ba8	0.023732975
101	0x3e84cb20	0.25936222
102	0xbd5711b7	-0.05250713
103	0xbce58bc7	-0.028020753
104	0xbe1326d3	-0.14370279
105	0x3c671052	0.014103012
106	0x3da914f4	0.082559496
107	0x3c9b4e3e	0.018958207
108	0xbe24b251	-0.16083647
109	0x3df8c7f5	0.12147514
110	0xbdad794d	-0.08470402
111	0xbe1c3b39	-0.15256967
112	0xbe63798e	-0.22214338
113	0xbddc7914	-0.10765281
114	0x3cffc006	0.031219494
115	0xbe15b545	-0.1461993
116	0xbe028a95	-0.12748177
117	0xbe37f927	-0.17966138
118	0xbe091c3f	-0.13389681
119	0xbe4175be	-0.18892571
120	0x3b8b01e6	0.0042421697
121	0xbc8684d5	-0.016420761
122	0xbd4497e0	-0.0479964
123	0xbe674983	-0.22586636
124	0x3eb35768	0.35027623
125	0x3e198464	0.1499191
126	0xbe9fa5ae	-0.3118109
127	0xbf00c680	-0.50302887
128	0xbc63b3c1	-0.013897837
129	0xbebc777e	-0.36809915
130	0xbd66c61c	-0.056341276
131	0xbe1a225d	-0.15052171
132	0xbeba7321	-0.3641596
133	0xbe96c5ae	-0.29447693
134	0xbeaaf029	-0.33386353
135	0xbcaaeba0	-0.020864308
136	0x3e852527	0.26004907
137	0x3e42332d	0.18964835
138	0xbe803f8d	-0.25048485
139	0x3e11b232	0.14228132
140	0x3d8cdd17	0.06878107
141	0x3b7c46c7	0.0038494335
142	0xbd49a8d5	-0.049233276
143	0xbd8f28ee	-0.069902286
144	0xbef54368	-0.4790299
145	0xbe1551e7	-0.14582025
146	0xbd49715e	-0.04918038
147	0xbdf255ae	-0.11832748
148	0x3e541e3d	0.2071466
149	0x3ebac851	0.36480954
150	0x3c9f2a29	0.019429283
151	0x3dd4f52f	0.103983276
152	0xbd354b2f	-0.044261154
153	0xbe83b506	-0.25724047
154	0x3d07955d	0.03310143
155	0x3e324472	0.17408922
156	0x3de2c186	0.11072068
157	0x3e26abb3	0.16276436
158	0x3e785eba	0.24254885
159	0xbdf97a8e	-0.121815786
160	0xbe35aaae	-0.1774089
161	0xbdf5a9ed	-0.119953014
162	0xbe47f402	-0.19526675
163	0x3e283c28	0.16429198
164	0x3d10e3ce	0.0353735
165	0xbeb7f0e1	-0.35925964
166	0xbec4cbec	-0.3843683
167	0xbd93b442	-0.07212116
168	0xbebac5e3	-0.364791
169	0xbe6e8f29	-0.23296799
170	0x3ea90b6d	0.3301653
171	0xbdee2d62	-0.1162975
172	0xbe9ce50e	-0.30643505
173	0xbe7ac8ad	-0.24490614
174	0xbe17fa62	-0.14841607
175	0x3def252b	0.11677011
176	0xbc4ff535	-0.012692739
177	0xbe677851	-0.22604491
178	0xbede048f	-0.43362853
179	0xbe2a900c	-0.16656512
180	0xbec662a4	-0.38747132
181	0x3bb73730	0.0055912957
182	0xbee92427	-0.45535395
183	0xbca2f9a3	-0.019894427
184	0x3e52a92c	0.20572346
185	0xbe01a613	-0.12661009
186	0xbea441d5	-0.32081476
187	0xbec0d04e	-0.37658924
188	0x3e743826	0.23849544
189	0xbea2b2b7	-0.31776974
190	0xbec82cf1	-0.39096788
191	0xbe8f18b9	-0.2794855
192	0x3e87b9fa	0.26509076
193	0x3e818778	0.25298667
194	0x3eb446de	0.35210317
195	0x3d6b105e	0.057388656
196	0x3ea58d04	0.3233415
197	0x3e295c37	0.16539083
198	0x3e88e6ff	0.26738736
199	0xbdd9241e	-0.10602592
200	0xbe66bbfe	-0.22532651
201	0xbe900cd9	-0.28134802
202	0xbacc1a59	-0.0015571817
203	0xbe8bb3d6	-0.2728564
204	0x3e6247df	0.22097729
205	0xbe44de55	-0.19225438
206	0xbebf78a7	-0.37396738
207	0xbeccddbe	-0.40012926
208	0xbe6ddef3	-0.2322958
209	0xbea09818	-0.31366038
210	0xbcf79362	-0.030221645
211	0x3ca8b869	0.020595746
212	0xbdd91d6e	-0.106013164
213	0x3e8b454c	0.27201307
214	0x3e07af4d	0.13250466
215	0xbdae9689	-0.08524806
216	0xbe8d4ffa	-0.2760008
217	0xbed8e48f	-0.42361876
218	0xbee0ae0d	-0.4388279
219	0x3e5dff80	0.21679497
220	0x3e1018e8	0.14072001
221	0xbebb3518	-0.36563945
222	0xbe53b5bb	-0.20674793
223	0x3eb0ce1e	0.34532255
224	0xbe827717	-0.25481483
225	0xbe86eb46	-0.26351374
226	0xbee4a230	-0.4465499
227	0xbe0c862e	-0.1372306
228	0xbe3908c6	-0.18069753
229	0xbe640d23	-0.22270636
230	0xbe3cf18c	-0.18451518
231	0xbaa383f4	-0.0012475238
232	0x3d6269e3	0.055276763
233	0x3ca22fc5	0.019798169
234	0xbe5d323b	-0.21601193
235	0xbeb2e528	-0.34940457
236	0xbec1db8c	-0.37862813
237	0xbe3e5f52	-0.1859105
238	0xbe6e9720	-0.23299837
239	0xbba5a7ec	-0.0050554182
240	0x3e916238	0.28395247
241	0x3e753d20	0.23949099
242	0xbeadac50	-0.33920527
243	0xbd955cb9	-0.07293076
244	0xbe9be518	-0.30448222
245	0x3d916b6e	0.07100569
246	0xbe62e34c	-0.2215702
247	0xbedfcfca	-0.43713218
248	0x3e51cc15	0.20488007
249	0xbec086dc	-0.3760289
250	0xbd21434e	-0.039370827
251	0x3de20cc3	0.1103759
252	0xbec0c9c4	-0.37653935
253	0x3e2b7598	0.16744077
254	0xbe7b4a65	-0.24540098
255	0xbe88c8b2	-0.26715618

weight f4 [256, 512]
0	0xbd0e7dac	-0.03478782
1	0xbc695191	-0.014240638
2	0x3bedf099	0.0072613475
3	0x3c65fd7c	0.014037486
4	0xbb23c758	-0.0024990644
5	0x3d10b0fb	0.03532503
6	0xbc815828	-0.015789106
7	0xbca50d0f	-0.020147828
8	0x3d861d07	0.06548505
9	0x3cd25267	0.025674058
10	0x3c434015	0.011917134
11	0x3c675c4b	0.014121125
12	0xbc377fb4	-0.01119988
13	0xbc9a38a2	-0.018825833
14	0x3d355717	0.04427251
15	0xbd4f354c	-0.050587937
16	0x3d93dda3	0.07220008
17	0xbcb411eb	-0.0219812
18	0x3cf2e60e	0.029650714
19	0xbc3b6779	-0.011438244
20	0x3bdf13d4	0.0068077836
21	0xbd0d8455	-0.03455003
22	0xbda1efa5	-0.07907037
23	0xbbb84d84	-0.005624475
24	0xbd097674	-0.03356023
25	0xbc3716bd	-0.011174855
26	0x3c499325	0.012303148
27	0x3b7ccad3	0.003857304
28	0xbd31045c	-0.043217048
29	0xbd15f151	-0.03660709
30	0xbcd2f584	-0.025751837
31	0x3c1b2462	0.009469124
32	0x3cd9ce3b	0.026587596
33	0x3bcc9201	0.006242991
34	0xbc0a8a76	-0.008455863
35	0xbd253f86	-0.040343784
36	0xbd633369	-0.05546895
37	0x3d572f98	0.052535623
38	0xbd8f6627	-0.07001906
39	0x3ca093e8	0.019601777
40	0xbd8645d8	-0.065562904
41	0x3d0dfadb	0.034663063
42	0xbd3bfcc8	-0.045895368
43	0xbd78426c	-0.06061022
44	0x3a444d05	0.00074882834
45	0xbd7631a5	-0.06010594
46	0xbbecf068	-0.007230807
47	0xbd19da31	-0.0375616
48	0x3c6d7990	0.014494315
49	0xbd48583f	-0.048912283
50	0xbd1e7828	-0.03868881
51	0xbd58cc1b	-0.052929025
52	0x3c084dd4	0.008319337
53	0xbd699d0a	-0.05703453
54	0x3c0c94d7	0.008580408
55	0xbcdbaadf	-0.026814876
56	0x3d42e7da	0.047584392
57	0x3d98f05a	0.074677184
58	0xbd2232cf	-0.039599236
59	0xbb62dfa2	-0.0034618159
60	0xbd64a92e	-0.055825405
61	0xbc23f48d	-0.010007036
62	0x3b92c005	0.004478457
63	0xbd49e226	-0.049287938
64	0x3c9df095	0.019279758
65	0x3d871bf1	0.06597126
66	0x3d060d2a	0.032727398
67	0x3bc38d3e	0.005967765
68	0xbc4c8c2e	-0.012484593
69	0xbd3182df	-0.0433377
70	0x3808a6ae	3.258016e-05
71	0xbca192c7	-0.01972331
72	0xbb63db83	-0.003476829
73	0xbc50bf00	-0.01274085
74	0x3cc52e2e	0.024069872
75	0x3baa3b3a	0.0051950486
76	0xbd5e9d10	-0.054349005
77	0xbb9a32a0	-0.004705742
78	0xbd6a5b86	-0.05721619
79	0xbceccca8	-0.028906181
80	0x3d6a134f	0.05714732
81	0xbd081927	-0.033227112
82	0x3d1434d2	0.036183186
83	0x3cda8947	0.026676787
84	0xbdc1f96e	-0.09471403
85	0x3cf3f493	0.029779708
86	0x3c6b9c52	0.014380531
87	0x3abc0016	0.0014343287
88	0xbb2e1951	-0.0026565383
89	0x3a037e2b	0.0005016054
90	0x3d13de92	0.03610093
91	0xbc8e8184	-0.017395742
92	0xbdaaa17d	-0.08331583
93	0xbd7e4b06	-0.062083267
94	0xbd9c2d9c	-0.07625887
95	0x3ab682ba	0.0013924458
96	0xbd59a762	-0.053138144
97	0x3c5a6742	0.013330283
98	0xbcd33b19	-0.025785016
99	0xbd0bcc4c	-0.03413038
100	0x3c80a486	0.01570345
101	0xbcb7bd2d	-0.022429073
102	0xbbc4db31	-0.006007575
103	0xba0767d4	-0.0005165313
104	0xbcabe54d	-0.020983363
105	0x3cfc24a4	0.03077919
106	0xbc42b7ac	-0.011884611
107	0xbd2ada81	-0.041712288
108	0xbd2214a7	-0.039570477
109	0xbd30b8ed	-0.04314511
110	0x3cfebe8b	0.031096717
111	0xbd940555	-0.072275795
112	0x3d1499a2	0.03627933
113	0x3c22eabb	0.009943659
114	0xbd763c35	-0.06011601
115	0xbd5ed92d	-0.054406334
116	0x3cf64e5e	0.030066665
117	0x3d1e98cc	0.038719937
118	0x3c9533f3	0.018213248
119	0xba4e079d	-0.0007859411
120	0x3caa4aea	0.020787675
121	0xbd2eb57e	-0.042653553
122	0x3d5ed89f	0.054405805
123	0x3a043a51	0.000504409
124	0xbd644aaa	-0.055735268
125	0x3c8c142b	0.01709946
126	0xbc0262a7	-0.007958091
127	0xbbf4861b	-0.0074622757
128	0xbc27f931	-0.010252283
129	0x3d90f210	0.0707742
130	0xbdb4b879	-0.08824248
131	0xbc45a958	-0.0120643005
132	0xbd41e051	-0.047333065
133	0xbd6ffe5c	-0.058592185
134	0x3d27752c	0.04088323
135	0xbd9af090	-0.07565415
136	0xbd01377e	-0.031547062
137	0xbcdf1bad	-0.027234877
138	0xbc14bf49	-0.009078809
139	0x3bce8511	0.006302484
140	0xbca64bf3	-0.020299887
141	0x3d898d1d	0.06716368
142	0xbc9db2e8	-0.019250348
143	0xbd85c4db	-0.06531688
144	0x3c3f8f35	0.011691858
145	0xbd326c22	-0.043560155
146	0xbbbfcdef	-0.0058534066
147	0x3d08fc09	0.033443484
148	0xbbbeab69	-0.0058187735
149	0xbcfa4b93	-0.030553615
150	0x3c5dc921	0.013536722
151	0xbd613315	-0.054980356
152	0x3b0248a8	0.0019879732
153	0x3d9e4aca	0.07729109
154	0x3cad8bcf	0.02118483
155	0xbd4cef41	-0.050032858
156	0xbc972c72	-0.01845381
157	0xbc4a8a5f	-0.012362092
158	0x3d25cb54	0.040477112
159	0xbd1a964e	-0.037740998
160	0x3c9ca5bf	0.019122003
161	0xbb7ba0cb	-0.00383954
162	0x3b77c7c9	0.003780829
163	0xbcc50600	-0.024050713
164	0xbcd8db68	-0.026471809
165	0xbc5b60b8	-0.013389759
166	0x3c29b261	0.01035747
167	0x3c35f574	0.011105884
168	0x3cbd0786	0.023074877
169	0xbc8845d5	-0.016634861
170	0x3cf47cad	0.029844606
171	0x3d2ad1b0	0.04170388
172	0xbb47a8f7	-0.00304657
173	0xbd259204	-0.040422454
174	0x3d6fc20d	0.05853467
175	0xbce8fb05	-0.028440008
176	0x3d319c6f	0.043362077
177	0xbcf66147	-0.030075682
178	0xbc8ad02c	-0.016944967
179	0xbd9a5733	-0.07536163
180	0xbcb6ce40	-0.022315145
181	0xbbcf859a	-0.006333065
182	0x3c2c1aec	0.010504466
183	0x3c2afdf1	0.010436521
184	0x3c989ad0	0.018628508
185	0xbc0814e1	-0.008305759
186	0xbd361406	-0.04445269
187	0xbcf7972d	-0.030223453
188	0xbdd4b489	-0.10385997
189	0x3d19b4cf	0.037525948
190	0xbcd6c997	-0.026219172
191	0x3bd4ad44	0.0064903814
192	0x3c49746b	0.012295823
193	0xbd19b5ea	-0.037527002
194	0xbd83d400	-0.0643692
195	0xbd6bec17	-0.0575982
196	0xbcefaa9b	-0.029256156
197	0x3c490c34	0.012270976
198	0x3c87b985	0.016567955
199	0x3b856a3f	0.0040715034
200	0x3c6a6451	0.014306144
201	0xbd827a5b	-0.06370994
202	0xbd71e478	-0.059055775
203	0xbcc44065	-0.023956487
204	0xbdae72bc	-0.085179776
205	0xbbff76cf	-0.0077961455
206	0xbd39bc4c	-0.04534559
207	0x3d440c85	0.047863502
208	0xbc5c99a8	-0.013464369
209	0xbd800bbe	-0.0625224
210	0xbd304312	-0.043032713
211	0xbd53a050	-0.051666558
212	0x3c3be082	0.011467101
213	0x3d93b950	0.0721308
214	0x3c42b912	0.0118849445
215	0xbd114a70	-0.03547138
216	0xbd05d6a2	-0.032675393
217	0xbc3a5416	-0.011372587
218	0xbd3aba19	-0.045587633
219	0xbcf2b014	-0.029624976
220	0x3d20cfea	0.039260782
221	0xbb881e83	-0.004154028
222	0xbdb30a08	-0.08742148
223	0x3bd8764e	0.0066059
224	0x3c4c4d93	0.012469667
225	0xbd0c1ee1	-0.034209136
226	0xbc8ab31c	-0.01693111
227	0xbcc110c3	-0.023567563
228	0xbd4d5030	-0.0501253
229	0x3cc20edd	0.023688728
230	0xbc6f7381	-0.014614941
231	0xbc9e720f	-0.019341497
232	0x3c8a7ad7	0.016904278
233	0x3c6b5933	0.0143645285
234	0x3ad66afe	0.001635879
235	0xbd171b5a	-0.03689132
236	0x3c3d845c	0.011567201
237	0x3d0b4b7c	0.034007534
238	0x3c3f96da	0.011693681
239	0xbc885439	-0.016641723
240	0x3d3d1f3d	0.04617237
241	0xbd91fea0	-0.07128644
242	0xbd24c6ff	-0.04022884
243	0x3c7925d5	0.015206774
244	0x3d73f20d	0.05955701
245	0x3cc22600	0.02369976
246	0xbb95a29f	-0.004566505
247	0x3c224538	0.009904198
248	0xbd14ba39	-0.03631041
249	0x3cd59541	0.026072146
250	0x3ce406a0	0.02783519
251	0xbc9edc27	-0.019392086
252	0xbc8d4858	-0.01724641
253	0x3c92d94b	0.017925879
254	0xbae62bb8	-0.0017560637
255	0x3c96ad7e	0.018393274

bias f4 [256]
0	0xbd96d401	-0.07364655
1	0xbcac3bdc	-0.021024637
2	0xbde1772a	-0.11009057
3	0xbd08a175	-0.033357102
4	0x3db72bd6	0.08943908
5	0xbe2e8535	-0.17043002
6	0x3c8da2cf	0.017289547
7	0x3dcd10a6	0.10012941
8	0xbced9ac8	-0.02900447
9	0x3dd2b7a3	0.10288932
10	0xbdb440c4	-0.088014156
11	0xbd1afa95	-0.03783663
12	0x3c4eea8f	0.012629165
13	0xbd28b83c	-0.041191325
14	0x3deb853e	0.11500023
15	0x3d0b956f	0.034078058
16	0xbc9a1e0c	-0.018813156
17	0x3db2049f	0.08692288
18	0x3d0ea245	0.03482272
19	0xbd288423	-0.04114164
20	0xbcb0ad54	-0.021567024
21	0xbc602498	-0.0136806
22	0xbb617281	-0.0034400525
23	0xbccc8d45	-0.024969706
24	0x3ccc2548	0.02492012
25	0xbd207159	-0.039170597
26	0x3d6da766	0.05802097
27	0x3d812eea	0.06307776
28	0x3d45b427	0.04826751
29	0xbc3e98fc	-0.011633154
30	0x3d46d61b	0.04854403
31	0x3ce69082	0.028145079
32	0xbc512f1b	-0.0127675785
33	0xbe1ec647	-0.15505324
34	0x3b60a8db	0.0034280333
35	0xbb8fe9ee	-0.0043919003
36	0x3b7c4e8f	0.0038498973
37	0xbe4911c9	-0.19635691
38	0x3d7bca84	0.06147243
39	0x3d89d17c	0.06729409
40	0xbdcc3a68	-0.099720776
41	0x3d43404e	0.047668748
42	0xbe1baad1	-0.1520188
43	0x3d2bec52	0.04197342
44	0x3db6a555	0.08918253
45	0x3d8f7785	0.070052184
46	0x3d92c1d1	0.07165874
47	0xbc7d12f3	-0.015446412
48	0x3c1ce8d8	0.009576999
49	0xbe674f49	-0.22588839
50	0xbc14565d	-0.009053794
51	0xbd01f5e5	-0.031728644
52	0xbc11a685	-0.008889799
53	0xbd2c9d07	-0.04214194
54	0xbd4668e1	-0.048439864
55	0xbd872d52	-0.06600441
56	0xbcff1c7f	-0.031141518
57	0xbd428762	-0.047492392
58	0xbd4f64d7	-0.050633278
59	0x3bd8360b	0.0065982393
60	0xbc380b68	-0.011233188
61	0xbbe948cb	-0.0071192733
62	0xbc720460	-0.014771551
63	0x3bb155cc	0.005411839
64	0xbd7416c2	-0.059592016
65	0x3c4bcc13	0.012438792
66	0x3bafcd80	0.0053650737
67	0xbd147110	-0.036240637
68	0x3d9c7e8e	0.07641326
69	0x3cbf234b	0.023332259
70	0x3c5a3663	0.013318631
71	0x3b9814e0	0.0046411604
72	0x3c97c7c3	0.018527871
73	0x3c09182a	0.008367578
74	0xbcb82d7a	-0.022482622
75	0xbd1bcd87	-0.038037803
76	0xbd57bf3c	-0.05267261
77	0x39ff51c5	0.00048698313
78	0x3d00d9ee	0.031457834
79	0x3dc8f895	0.09813038
80	0xbda63cba	-0.081170514
81	0x3ce95b02	0.028485779
82	0x3d5fa047	0.05459621
83	0x3d83b497	0.06430929
84	0xbd3561e9	-0.044282828
85	0xbd3a7c0e	-0.045528464
86	0xbdefe580	-0.117136955
87	0xbdfe809a	-0.124268726
88	0xbcf7e0b5	-0.030258516
89	0xbdaf570b	-0.08561524
90	0xbd05d28c	-0.032671496
91	0x3ce45ada	0.027875353
92	0x3dbb0e50	0.09133589
93	0xbd76a9ff	-0.060220715
94	0x3c913a7e	0.017728087
95	0xbdfb98c8	-0.12285
96	0x3dbfcb8f	0.093649976
97	0x3dbea0f1	0.09308041
98	0xbc14ef7a	-0.009090299
99	0x3c70eb3d	0.014704523
100	0xbd4058ad	-0.046959568
101	0x3a20b378	0.00061302586
102	0x3d65242f	0.05594271
103	0xbdab48bd	-0.08363483
104	0xbbc8cd52	-0.0061279917
105	0x3bc1ddb3	0.005916321
106	0xbd856302	-0.06513025
107	0xbc3de0b9	-0.011589223
108	0xbd1e5351	-0.038653675
109	0xbbed48fc	-0.0072413664
110	0xbd3bdb8a	-0.045863666
111	0xbd0c2d0d	-0.03422265
112	0xbbd6f173	-0.0065595447
113	0x3daab64f	0.08335554
114	0xbcd266c3	-0.025683766
115	0xbe10e481	-0.14149667
116	0x3cce99c7	0.025219811
117	0x3d84a068	0.064759076
118	0xbdb28e52	-0.08718552
119	0xbdb6a664	-0.08918455
120	0xbc928c3d	-0.017889136
121	0xbda867d5	-0.082229294
122	0x3c3ec6e1	0.011644096
123	0xbd71b68e	-0.05901199
124	0xbd38a687	-0.045080688
125	0xbd879cd2	-0.06621708
126	0xbc92aca6	-0.01790459
127	0xbd253d29	-0.04034153
128	0xbd19fee8	-0.037596613
129	0x3d80f8a3	0.06297424
130	0x3d0f8f99	0.035049055
131	0x3c06d656	0.008229813
132	0x3d7cb266	0.06169357
133	0xbb9ca114	-0.004779944
134	0xbc8892f8	-0.016671643
135	0x3d5a3ab8	0.053278655
136	0xbd9f3d05	-0.077753104
137	0xbd4da4d1	-0.05020601
138	0x3d505dd0	0.050870717
139	0xbdaf02ae	-0.08545433
140	0x3c4de81a	0.012567544
141	0xba9ddbf6	-0.0012043703
142	0xbd107cb5	-0.03527518
143	0xbca2d018	-0.019874617
144	0xbdbda625	-0.09260205
145	0xbbeaa113	-0.007160315
146	0xbd300b05	-0.04297926
147	0xbd5be7ef	-0.053687986
148	0x3bf097ce	0.0073423153
149	0x3d01fd29	0.031735573
150	0x3d146a4b	0.03623418
151	0x3d7a42e6	0.061098956
152	0xbd657444	-0.056019083
153	0xbd315e43	-0.043302786
154	0xbd9c3049	-0.07626397
155	0x3c37c545	0.011216466
156	0x3d4ccc60	0.049999595
157	0xbd2cfc43	-0.042232763
158	0xbdaccfcf	-0.08438074
159	0xbced1292	-0.02893952
160	0x3c88a88f	0.016681938
161	0xbda50c05	-0.08058933
162	0xbd33f09d	-0.04393064
163	0x3d6572f4	0.05601783
164	0x3d1624f1	0.036656324
165	0xbd2610d8	-0.040543407
166	0x3c2a57c2	0.0103969
167	0xbc0d79ef	-0.008635028
168	0x3b712558	0.003679594
169	0xbc768850	-0.015047148
170	0xbbfb5a30	-0.0076706633
171	0xbdb57a13	-0.088611744
172	0x3e0da2b2	0.13831595
173	0x3a7e4977	0.0009700278
174	0x3dabc213	0.08386626
175	0xbddb8e09	-0.107204504
176	0x3bcd9fc0	0.006275147
177	0xbcc027fc	-0.023456566
178	0xbe20e109	-0.15710844
179	0xbd005319	-0.031329248
180	0x3d92feb1	0.07177485
181	0xbd1df910	-0.038567603
182	0xbd46877a	-0.048469044
183	0x3cb2c067	0.02182026
184	0xbd171905	-0.036889095
185	0x3d1cbde6	0.03826704
186	0xbc93f14d	-0.018059397
187	0xbd9bbb04	-0.0760403
188	0xbb0b01f2	-0.0021210876
189	0xbd86c8c6	-0.06581263
190	0x3d98ecf3	0.074670695
191	0x3c2c0b6d	0.010500771
192	0x3d184c3a	0.03718207
193	0x3ba8e234	0.0051539186
194	0xbd8e54ee	-0.06949793
195	0xbd3e91be	-0.04652571
196	0xbb318168	-0.0027085189
197	0xbcd44967	-0.025913907
198	0x3bfc076b	0.007691314
199	0xbd04b01c	-0.032394513
200	0x3dee325b	0.11630698
201	0x3cef949e	0.02924567
202	0x3c51fb9e	0.012816338
203	0x3da20490	0.079110265
204	0x3dbd3884	0.09239295
205	0x3d52e7fe	0.051490776
206	0xbd0ae84a	-0.033912934
207	0x3bffb477	0.0078034955
208	0xbd760fad	-0.060073543
209	0xb9817568	-0.00024692272
210	0x3d459583	0.04823829
211	0x3dfad7a8	0.122481644
212	0xbd1ba079	-0.037994836
213	0x3bb47605	0.005507233
214	0x3c6912da	0.014225686
215	0x3d2b7eee	0.041869096
216	0xbd8b4756	-0.068007156
217	0x3ce0c8b4	0.027439453
218	0xbd615a58	-0.0550178
219	0xbe31aa9f	-0.17350243
220	0xbc12622c	-0.008934539
221	0xbd750528	-0.05981937
222	0xbdbbe943	-0.091753505
223	0x3c109a35	0.008825828
224	0x3dae3775	0.08506671
225	0x3de0f823	0.10984828
226	0xbdf8a870	-0.12141502
227	0x3d3b5c95	0.04574259
228	0xbe2223ce	-0.15833971
229	0xbd9cc43d	-0.07654617
230	0x3de1100f	0.10989391
231	0xbe15b7f6	-0.14620957
232	0xbd272e76	-0.040815793
233	0xbcf1a9c7	-0.029499901
234	0xbc604826	-0.0136890765
235	0x3bb50376	0.005524094
236	0x3d1f2d8c	0.038861796
237	0x3ce4cd77	0.027930005
238	0xbd9b997e	-0.07597636
239	0xbdd48f8e	-0.103789434
240	0xbd2c0b57	-0.042003002
241	0xbc3adde4	-0.011405442
242	0xbdd9297e	-0.10603617
243	0x3d9d0b51	0.07668174
244	0xbdc6d9b6	-0.09709494
245	0x3c42cf6d	0.0118902745
246	0xbe184bcc	-0.14872664
247	0x3d79b7ae	0.060966186
248	0xbdff291e	-0.12459014
249	0xbe4b4889	-0.19851889
250	0xbd250a19	-0.040292833
251	0xbe0a607d	-0.1351337
252	0x3c32db17	0.010916493
253	0xbd24f341	-0.040271048
254	0xbcea9819	-0.028636979
255	0xba896c09	-0.0010484467

weight f4 [128, 256]
0	0xbcee5066	-0.029091071
1	0x3c8ac02e	0.016937342
2	0x3d0fc7a0	0.035102487
3	0xbcb1ca39	-0.021702873
4	0xbc0663c5	-0.008202498
5	0x3d16d304	0.036822334
6	0xbd4c78a6	-0.049919747
7	0xbd9bc057	-0.07605045
8	0xbb788e14	-0.0037926482
9	0x3e1d4275	0.15357383
10	0xbd48d366	-0.04902973
11	0x3c863f88	0.016387716
12	0xbd033d1d	-0.032040704
13	0x3d0a1cf2	0.03371901
14	0xbd63d073	-0.055618715
15	0xbc1c8ba6	-0.009554779
16	0xbd9293b8	-0.07157081
17	0xbe07888f	-0.13235687
18	0x3b73ab45	0.0037180942
19	0xbce32fc4	-0.027732737
20	0xbd1ab7af	-0.03777283
21	0x3d63a69a	0.055578806
22	0x3db444ba	0.08802171
23	0x3cba3210	0.02272895
24	0xbc9daab7	-0.019246442
25	0xbc47aa50	-0.012186602
26	0xbcec5b8d	-0.028852249
27	0x3c08aabb	0.008341487
28	0xbd3d6c7a	-0.04624603
29	0x3e1235b4	0.14278299
30	0xbcb715d7	-0.022349281
31	0x3dd5b97a	0.104357675
32	0x3d82cfc4	0.063872844
33	0xbc95bd8b	-0.018278858
34	0x3d768b39	0.060191367
35	0x3d4179f7	0.047235455
36	0xbbd19340	-0.0063957274
37	0x3c8e86b6	0.01739822
38	0xbda8e427	-0.082466416
39	0x3c2c6a05	0.010523324
40	0x3d2b59a5	0.04183354
41	0xbdf9e258	-0.12201375
42	0xbd722445	-0.05911662
43	0x3cba1b78	0.022718176
44	0x3dcf4900	0.101213455
45	0x3b532a9c	0.0032221442
46	0x3c4e8946	0.012605971
47	0x3e1297b3	0.14315681
48	0x3d875e8e	0.06609832
49	0x3dc2ff42	0.09521343
50	0x3db1939c	0.086707324
51	0xbcf9ab86	-0.030477297
52	0x3d98bb31	0.07457579
53	0x3d9accbd	0.07558582
54	0xbcf7f388	-0.030267492
55	0xbd39d305	-0.04536726
56	0x3b9312aa	0.004488309
57	0x3cb6fc6c	0.022337161
58	0x3d11113e	0.035416834
59	0xbddf783c	-0.10911605
60	0x3e7defa7	0.24798451
61	0xbd29878d	-0.041389037
62	0x3caf4bfc	0.021398537
63	0x3d88d68d	0.06681547
64	0xbc342339	-0.010994726
65	0x3dbe564a	0.09293802
66	0xbd733c9f	-0.059383985
67	0xbdf7cee2	-0.12100007
68	0x3bade18d	0.0053064288
69	0x3d7a14f5	0.061055142
70	0xba1a62c0	-0.00058893487
71	0xbd6613f0	-0.056171358
72	0xbd7d4969	-0.061837588
73	0xbdc6abab	-0.09700712
74	0xbd1c3514	-0.038136557
75	0x3c9a2108	0.018814579
76	0xbd844187	-0.06457811
77	0x3c356b1c	0.0110729
78	0x3d3e25e0	0.04642284
79	0xbde56af9	-0.11202044
80	0x3c9064a6	0.017626118
81	0xbdecc991	-0.11561883
82	0xbd53e80a	-0.05173496
83	0xbcead0d6	-0.028664034
84	0x3d0ddbcb	0.03463344
85	0x3da02843	0.07820179
86	0x3de6b62b	0.112652145
87	0xbc4f168b	-0.012639652
88	0x3d090d7b	0.03346012
89	0xbd16bc5a	-0.03680072
90	0x3bf0718f	0.007337756
91	0xbc240b24	-0.010012422
92	0x3d0be4c8	0.03415373
93	0x3c19a228	0.00937704
94	0x3d34ddba	0.044156767
95	0x3c9520d8	0.018204138
96	0xbdd192e2	-0.10233094
97	0xbc10b8e1	-0.008833141
98	0x3c5b4d0f	0.013385071
99	0xbcac33ed	-0.021020854
100	0x3d3d9dfd	0.046293247
101	0xbd26f9c4	-0.04076554
102	0xbdf4a7a1	-0.11946035
103	0x3cb11f67	0.02162142
104	0x3d517494	0.05113657
105	0xbccb95eb	-0.02485176
106	0x3d7a227d	0.061068047
107	0x3cca7cfa	0.024717797
108	0x3d345a68	0.04403153
109	0x3bdca62e	0.0067336773
110	0x3d721ba8	0.059108406
111	0xbd18198f	-0.03713375
112	0xbd7ce4ad	-0.06174152
113	0xbdf9c8c1	-0.12196494
114	0xbc8dd667	-0.017314149
115	0xbbfa646f	-0.007641367
116	0x3c27332b	0.0102050705
117	0xbdef7a50	-0.11693251
118	0x3d6dd581	0.05806494
119	0x3c69d226	0.014271295
120	0xbdfeb6cd	-0.1243721
121	0x3cebe404	0.02879525
122	0xbd961283	-0.073277496
123	0x3da313bc	0.079627484
124	0x3dae8502	0.08521463
125	0x3d60d744	0.054892793
126	0xbd55818d	-0.052125502
127	0x3d20a872	0.039223142
128	0x3d4c44e1	0.049870376
129	0x3d9848d1	0.074357636
130	0xbd91d2ca	-0.07120283
131	0xbb13b77f	-0.0022539792
132	0xbd228e9f	-0.039686795
133	0x3d50d1d3	0.050981354
134	0xbc8e0e50	-0.01734081
135	0x3e08ad32	0.13347319
136	0xbd09c471	-0.033634607
137	0x3d117141	0.035508398
138	0x3d15fd76	0.036618672
139	0x3cacb88f	0.021084098
140	0x3d374539	0.04474375
141	0x3cab7b5d	0.020932848
142	0x3d169131	0.03675956
143	0x3cd10dd2	0.025519285
144	0xbddf8269	-0.10913546
145	0xbc18fad1	-0.009337143
146	0x3e129b80	0.14317131
147	0x3d2501a1	0.040284757
148	0x3d87492d	0.06605754
149	0xbda0499e	-0.07826541
150	0xbe0917a7	-0.13387929
151	0xbd6c54e8	-0.05769816
152	0xbc63395a	-0.013868654
153	0xbc70297f	-0.014658331
154	0xbd68f6e6	-0.056876086
155	0xbd5a4a48	-0.053293496
156	0xbd367277	-0.044542756
157	0x3bddba89	0.0067666215
158	0xbd9d4ee5	-0.076810636
159	0xbd56d491	-0.052448813
160	0xbc3ea3c5	-0.011635725
161	0x3d59eeda	0.053206302
162	0xbe127fda	-0.14306584
163	0x3daf7ca3	0.085686944
164	0xbd37a0d3	-0.04483111
165	0xbe02d3e3	-0.12776141
166	0xbd7366bd	-0.05942415
167	0x3caa9c9c	0.02082663
168	0x3cbdcb9f	0.023168383
169	0xbd7eecc1	-0.062237505
170	0xbcc9d24e	-0.024636414
171	0x3c2b64b9	0.010461026
172	0x3e0f2527	0.13979016
173	0xbd50a7bc	-0.050941214
174	0xbe22d195	-0.15900262
175	0xbd581828	-0.052757412
176	0xbceb1956	-0.028698605
177	0xbcbeea1a	-0.023304988
178	0xbcdb3c29	-0.026762085
179	0xbdcb4c12	-0.09926619
180	0xbda44582	-0.0802107
181	0x3c2655f3	0.010152328
182	0xbd578ffe	-0.052627556
183	0x3c3f121f	0.011662035
184	0xbc08816c	-0.008331638
185	0x3d87c72a	0.066297844
186	0x3d8099bf	0.06279325
187	0xbd979cfb	-0.074029885
188	0x3e1288da	0.14310017
189	0x3c86bcb3	0.0164474
190	0x3d5310c3	0.051529657
191	0x3d417212	0.047227927
192	0xbde274fe	-0.11057471
193	0x3de112ac	0.109898895
194	0xbd37e79d	-0.044898618
195	0x3a8a806e	0.001056684
196	0x3c3b8b0a	0.011446724
197	0x3d0e7ab7	0.034785
198	0xbcd057ae	-0.025432434
199	0xbdcc12cb	-0.09964522
200	0xbd2b534b	-0.04182748
201	0x3d796045	0.060882825
202	0x3cfd6e7c	0.030936472
203	0xbbeae7f0	-0.0071687624
204	0x3d4261a9	0.047456417
205	0xbd802899	-0.062577434
206	0x3d228dca	0.039686
207	0xbce3bc8c	-0.027799867
208	0xbd1e2490	-0.038609087
209	0xbcb38689	-0.021914737
210	0xbd5f317c	-0.05449055
211	0x3ae2fb9c	0.0017317417
212	0xbd3443ce	-0.044009976
213	0xbe0ad202	-0.13556674
214	0x3c789b2b	0.015173714
215	0x3be7a173	0.007068807
216	0x3e37fe48	0.17968094
217	0x3cd206e1	0.025638046
218	0x3bb25d13	0.005443224
219	0x3da63b20	0.08116746
220	0xbd2f9754	-0.042868927
221	0x3df078df	0.11741804
222	0xbdd5dcd5	-0.10442511
223	0xbc750a1b	-0.014956023
224	0x3e1d282e	0.15347359
225	0xbdbeaa47	-0.093098216
226	0x3c586a1f	0.013208895
227	0xbbcc02a7	-0.006225902
228	0xbc250178	-0.010071151
229	0x3e0681da	0.13135472
230	0x3c001e47	0.007819719
231	0x3d421157	0.047379818
232	0x3deefdc7	0.11669498
233	0x3dc2e906	0.09517102
234	0xb80d9e43	-3.3764412e-05
235	0x3d24257f	0.04007482
236	0xbdedfa11	-0.11619962
237	0x3bb6f6d7	0.005583625
238	0xbc8a35ac	-0.016871296
239	0x3dc9a2d8	0.09845513
240	0xbd46aed1	-0.04850656
241	0x3b248f6f	0.0025109907
242	0xbcaab701	-0.020839216
243	0x3b4b7290	0.0031043626
244	0x3d2ede6a	0.04269258
245	0xbda7b79c	-0.081893176
246	0x3b0e7baa	0.002174119
247	0xbb78e37c	-0.0037977388
248	0xbbbc3572	-0.005743676
249	0x3d84a522	0.06476809
250	0x3d7d28e8	0.06180659
251	0x3d2823c5	0.041049737
252	0x3d77f093	0.060532164
253	0x3dba4626	0.09095411
254	0xbda694db	-0.08133861
255	0x3cbd1cb8	0.023084983

bias f4 [128]
0	0x3cf3f9e8	0.02978225
1	0x3db0efc2	0.0863948
2	0x3dab3e74	0.08361521
3	0xbd05af33	-0.032637786
4	0x3c45d75e	0.012075273
5	0xbb609e5c	-0.0034274077
6	0x3def2883	0.11677649
7	0x3ccc92c0	0.02497232
8	0x3d7f4aec	0.06232731
9	0xbde10de8	-0.109889805
10	0xbd1c3ce5	-0.03814401
11	0xbd4f3287	-0.050585296
12	0x3dd3df40	0.10345316
13	0xbd6a5723	-0.057212006
14	0x3d5b8370	0.053592145
15	0xbd4b2584	-0.049596325
16	0x3d9832de	0.07431577
17	0xbddc6ea1	-0.10763288
18	0x3d26d507	0.040730502
19	0x3d42cd8c	0.047559306
20	0xbbb08352	-0.0053867484
21	0xbd9c3a9e	-0.07628368
22	0x3e102eb1	0.14080311
23	0x3dc41a40	0.09575319
24	0xbdc1655a	-0.094431594
25	0x3d2895ea	0.041158594
26	0x3c134075	0.008987536
27	0x3d4462b2	0.047945686
28	0xbd4131da	-0.047166683
29	0xbcb190b1	-0.02167544
30	0xbc9cd4e4	-0.019144483
31	0xbded9a5d	-0.11601708
32	0xbb92d836	-0.0044813408
33	0x3db928f6	0.09041016
34	0xbd143f22	-0.03619302
35	0xbd42bb7f	-0.04754209
36	0x3cf831a0	0.0302971
37	0x3e08c5c9	0.13356699
38	0x3d6a7479	0.057239983
39	0xbc951607	-0.01819898
40	0xbddc5129	-0.107576676
41	0x3d77299d	0.06034242
42	0x3c3b49ba	0.011431152
43	0x3e00e608	0.1258775
44	0x3d959ada	0.07304926
45	0x3e56d569	0.20979847
46	0x3b85e8a3	0.0040865703
47	0x3e278a44	0.16361338
48	0xbcae77e6	-0.021297406
49	0xbde86afa	-0.11348529
50	0xbdd96640	-0.10615206
51	0x3c912e88	0.017722383
52	0xbdfbb966	-0.12291221
53	0x3d9b0ef6	0.07571213
54	0xbda50cc1	-0.08059073
55	0x3e3c10fa	0.18365851
56	0x3dcd31d7	0.10019272
57	0x3b39b853	0.0028338626
58	0xbe54d637	-0.20784841
59	0x3be5d164	0.0070134867
60	0xbcbe6ff0	-0.023246735
61	0xbc9d5f19	-0.019210385
62	0x3e133092	0.14373997
63	0xbc1347ea	-0.008989314
64	0x3b116881	0.0022187533
65	0x3e26e436	0.16297993
66	0xbe0b19c9	-0.13584055
67	0x3bcf130d	0.0063194097
68	0x3c405acf	0.0117404
69	0xbdf221cb	-0.11822852
70	0xbd3053e6	-0.04304876
71	0x3bccbba9	0.006247957
72	0x3df26655	0.118359245
73	0xbe03a211	-0.12854792
74	0xbe00defc	-0.12585062
75	0xbc741574	-0.014897693
76	0xbdaadfcb	-0.08343466
77	0x3d899282	0.06717397
78	0x3dacb0b4	0.08432141
79	0x3dc7c0dc	0.09753582
80	0x3cfbd5cf	0.0307416
81	0xbd89d37b	-0.0672979
82	0x3cbea69d	0.023272807
83	0x3d7ee588	0.062230617
84	0xbca16ded	-0.019705737
85	0xbde0f214	-0.10983673
86	0xbcdcaacb	-0.02693691
87	0xbbdd8669	-0.0067604077
88	0x3c98fa72	0.01867411
89	0xbdc028af	-0.0938276
90	0xbddf2326	-0.10895376
91	0x3d00cd95	0.03144606
92	0x3e21d73d	0.15804763
93	0x3b26ee79	0.002547173
94	0xbd307517	-0.043080416
95	0xbddf9fca	-0.10919149
96	0xbdf766ea	-0.12080176
97	0x3c918b46	0.017766606
98	0x3d907a3a	0.07054563
99	0x3d4efd9c	0.05053483
100	0xbddb0a57	-0.106953315
101	0xbe020a60	-0.1269927
102	0x3db1d2f3	0.086828135
103	0x3c78dca9	0.015189328
104	0x3c682da2	0.014171036
105	0x3d4482cb	0.047976296
106	0xbb3961d7	-0.0028287077
107	0x3d94f704	0.07273677
108	0xbc825423	-0.01590926
109	0x3d914057	0.0709235
110	0x3c19c4db	0.009385313
111	0x3d4ce3b2	0.050021835
112	0xbccf05f3	-0.025271391
113	0x3c1a5cf1	0.009421573
114	0xbd18b7a1	-0.037284497
115	0x3e37be60	0.17943716
116	0xbe029579	-0.12752332
117	0xbd6a301a	-0.05717478
118	0x3dae8ea0	0.08523297
119	0x3b8c0a34	0.0042736772
120	0x3df9eaad	0.12202964
121	0x3e055867	0.13022004
122	0xbc877d54	-0.016539253
123	0xbe04db48	-0.12974274
124	0xbd90dac5	-0.07072977
125	0x3d643358	0.055713028
126	0x3d1fa453	0.03897507
127	0x3db4db16	0.0883085

weight f4 [64, 128]
0	0xbe10d131	-0.141423
1	0x3d868e0f	0.06570064
2	0xbd710e55	-0.05885156
3	0x3da6e331	0.08148802
4	0x3e00a7ab	0.1256396
5	0x3d15217e	0.036408894
6	0x3c0da636	0.008645585
7	0xbdac8582	-0.08423902
8	0x3cd646d0	0.026156813
9	0xbc8178ce	-0.015804674
10	0xb90ae2bb	-0.00013245169
11	0x3da89b45	0.0823274
12	0x3dc135ad	0.09434066
13	0xbe14cb55	-0.1453069
14	0x3d856869	0.06514055
15	0x3df865d8	0.121288
16	0xbbb3fb60	-0.0054926127
17	0xbe05db9f	-0.1307206
18	0xbc6100e8	-0.013733126
19	0x3df458c4	0.11930993
20	0x3d1e553e	0.038655512
21	0x3b86b78d	0.0041112364
22	0xbda2914a	-0.07937868
23	0x3c69f0d8	0.014278613
24	0x3cfabcbd	0.030607576
25	0x3db971ca	0.09054907
26	0xbdec6d2b	-0.1154426
27	0x3d61b55c	0.0551046
28	0x3d359f8b	0.044341605
29	0xbc6f9c0a	-0.014624605
30	0x3d599e6e	0.053129606
31	0x3db2b346	0.087256
32	0x3cc25e93	0.023726737
33	0xbc9c9224	-0.019112654
34	0xba849f9c	-0.0010118368
35	0xbc9c3330	-0.019067377
36	0xbd8ecabc	-0.06972262
37	0x39a9f936	0.00032419869
38	0x3c6a5e63	0.01430473
39	0x3a89dffd	0.0010519024
40	0xbdc98cf7	-0.0984134
41	0x3dbb8b07	0.09157377
42	0xbc48dcf1	-0.012259708
43	0x3e0a3e07	0.13500224
44	0x3cb6a269	0.02229424
45	0xbdaba402	-0.083808914
46	0x3bd28645	0.0064246976
47	0x3de4fbd6	0.111808464
48	0xbccefe50	-0.02526775
49	0xbceedadc	-0.029157095
50	0xbca2c76f	-0.019870488
51	0x3da6272d	0.08112941
52	0xbcf40163	-0.029785817
53	0x3d9b576e	0.07585035
54	0xbd6c57a7	-0.05770078
55	0x3e0cac50	0.13737607
56	0x3d8467a7	0.064650826
57	0x3d873256	0.06601398
58	0xbde0eda2	-0.10982825
59	0xbd0c849b	-0.03430615
60	0x3da5e44a	0.08100183
61	0xbabc0b11	-0.001434656
62	0xbb0aef22	-0.0021199663
63	0xbe260742	-0.16213706
64	0xbd698af4	-0.05701728
65	0xbdbf4957	-0.0934016
66	0x3ce0f3e5	0.027460048
67	0xbd9e84ff	-0.07740211
68	0x3d2a0f03	0.041518223
69	0xbdb3e7d1	-0.0878445
70	0x3d78060f	0.060552653
71	0x3d9974ae	0.07492958
72	0x3bb2476b	0.0054406426
73	0xbde4a2e2	-0.1116388
74	0xbd81e355	-0.06342188
75	0xbc36828c	-0.011139523
76	0x3d62bde2	0.055356868
77	0xbdc122b9	-0.09430451
78	0xbd42733b	-0.047473174
79	0xbdff9d37	-0.12481158
80	0x3e1ab6d7	0.1510881
81	0xbdc29076	-0.0950021
82	0x3dafd016	0.08584611
83	0xbd14a269	-0.0362877
84	0xbe3e960a	-0.18611923
85	0xbd2088e2	-0.03919304
86	0x3c6420ff	0.0139238825
87	0xbd580f20	-0.0527488
88	0x3dac5405	0.08414463
89	0xbd0fd064	-0.035110846
90	0xbdee2bbb	-0.11629435
91	0xbda9e0a6	-0.082948014
92	0xbd0f3028	-0.034958035
93	0x3d3088f1	0.043099348
94	0x3dae238b	0.08502873
95	0x3df48585	0.11939529
96	0x3d79fb1d	0.061030496
97	0xbd875ac5	-0.0660911
98	0xbd99af3d	-0.07504127
99	0xbc1e05d8	-0.009644948
100	0xbcf8e985	-0.030384788
101	0xbd8fe457	-0.07025974
102	0x3debfe84	0.115231544
103	0xbd0b7f04	-0.03405668
104	0x3c998a91	0.018742831
105	0x3d0d4a4f	0.034494694
106	0x3c5eda8f	0.013601913
107	0xba2b4558	-0.00065334653
108	0x3da7c3ae	0.0819162
109	0x3cad71ef	0.021172492
110	0xbdb3de28	-0.08782607
111	0xbc6e72b3	-0.014553714
112	0xbbd6b341	-0.0065521304
113	0x3cd58946	0.026066434
114	0xbc9a52c0	-0.018838286
115	0x3c95a71b	0.018268159
116	0xbe0138ec	-0.1261937
117	0x3d23a39e	0.03995096
118	0x3cfe5e10	0.031050712
119	0x3d41300d	0.047164965
120	0xbd290d3e	-0.041272394
121	0x3e157da5	0.14598711
122	0x3d13d5be	0.036092512
123	0xbd82278f	-0.063552015
124	0xbd1ce493	-0.038303923
125	0xbd8cd23b	-0.06876036
126	0xbd9674e3	-0.07346513
127	0x3de5f450	0.112282395
128	0x3cf8fdef	0.030394522
129	0x3d5034fe	0.050831787
130	0xbd10463f	-0.035223242
131	0x3b2561f3	0.0025235384
132	0x3cbb6cc8	0.02287902
133	0xbc0a022d	-0.00842337
134	0xbbef5ae2	-0.0073045352
135	0xbd9aad38	-0.0755257
136	0x3daf8453	0.08570161
137	0xbc983aa3	-0.018582648
138	0x3d83a995	0.064288296
139	0x3ced0d9e	0.028937157
140	0x3e08a03f	0.13342379
141	0xbdc6b668	-0.0970276
142	0x3d9eaf3d	0.07748268
143	0x3c98d42b	0.018655857
144	0xbd43de53	-0.047819447
145	0xbd35d403	-0.044391643
146	0x3c4d4984	0.0125297345
147	0x3da38ea2	0.079861894
148	0x3d97af20	0.07406449
149	0xbe112066	-0.14172515
150	0x3df738e0	0.12071395
151	0xbc276004	-0.010215763
152	0xbdbef164	-0.09323385
153	0xbdc13c36	-0.094353124
154	0x3c1bded0	0.009513572
155	0xbd8a23b2	-0.067450896
156	0xbd5ac7f0	-0.05341333
157	0xbd8b922e	-0.06814991
158	0x3da85262	0.08218838
159	0xbd90e41f	-0.07074761
160	0x3d8d6147	0.0690332
161	0x3d6a404e	0.057190232
162	0xbdacebf3	-0.08443441
163	0x3d3a3e3b	0.045469504
164	0x3cc863df	0.024461685
165	0x3d7113c1	0.05885673
166	0xbc34a3ef	-0.011025413
167	0xbd37f577	-0.044911828
168	0xbe11420e	-0.14185354
169	0x3adaf774	0.0016705827
170	0x3d956408	0.0729447
171	0xbd076a9e	-0.033060662
172	0x3d7507cf	0.0598219
173	0xbcb4e5b3	-0.022082185
174	0x3d1d6b40	0.03843236
175	0x3c901e77	0.017592652
176	0x3d983b37	0.07433169
177	0x3d544da6	0.051831864
178	0xbbbe5707	-0.0058087143
179	0x3694affc	4.431231e-06
180	0xbdc62268	-0.09674531
181	0x3c679280	0.014134049
182	0xbd9777f2	-0.07395925
183	0xbc45f45c	-0.012082186
184	0x3c907d1e	0.017637786
185	0xbd887889	-0.06663615
186	0x3ba0b58c	0.0049044546
187	0xbd3a1c5b	-0.045437198
188	0x3db422c7	0.08795696
189	0xbd83418e	-0.06408988
190	0x3d44f7f0	0.048088014
191	0xbe46175f	-0.19344853
192	0x3d270e46	0.040785097
193	0x3b98b8c7	0.004660699
194	0x3e1930e6	0.1496006
195	0xbcd13904	-0.025539882
196	0x3b35d0bf	0.002774283
197	0xbd59a2f2	-0.053133912
198	0xbd06e28b	-0.032930892
199	0x3c26391b	0.010145451
200	0x3d841556	0.06449382
201	0x3d4a5456	0.049396835
202	0xb905433e	-0.00012708918
203	0x3dcee7f0	0.10102832
204	0x3d8040d4	0.06262365
205	0xbc164975	-0.009172787
206	0xbc5af22c	-0.013363402
207	0xbd3e1a01	-0.046411518
208	0x3d9ff7e8	0.07810956
209	0x3ca960c3	0.020676022
210	0x3d71a8a4	0.05899872
211	0x3c8bcedd	0.017066414
212	0xbe323659	-0.17403544
213	0xbce9b984	-0.028530844
214	0x3d5c8d7c	0.053845868
215	0xbe39cc7e	-0.18144414
216	0xbc9371a4	-0.017998524
217	0x3d32bc72	0.043636747
218	0xbd7af8d7	-0.06127247
219	0xbda0ccb1	-0.07851542
220	0x3dc9e57c	0.09858224
221	0xbd3fe1c7	-0.046846177
222	0xbbe5b30b	-0.007009869
223	0x3de3eb75	0.11128894
224	0x3d77ce41	0.060499433
225	0xbd2eace3	-0.042645346
226	0xbd6eb04e	-0.058273606
227	0xbc0ce4a6	-0.008599436
228	0xbd5e645d	-0.054294933
229	0x3d2220ec	0.039582178
230	0x3d8c1fb9	0.06841988
231	0x3d4d8fcb	0.05018596
232	0x3d0a6a58	0.033792824
233	0x3d9b7617	0.07590883
234	0x3d8fb1b7	0.07016318
235	0x3dba5aab	0.09099325
236	0x3c84d103	0.016212946
237	0x3d90d516	0.07071893
238	0xbd4e68b3	-0.050392818
239	0x3bb73741	0.0055913036
240	0x3d1ea9b8	0.038736075
241	0xbb47656b	-0.003042544
242	0xbe00c48e	-0.1257498
243	0x3da731db	0.08163806
244	0xbd126e82	-0.03574992
245	0xbc840515	-0.016115705
246	0x3c8f58a4	0.017498322
247	0x3dd8050b	0.10547837
248	0xbc9ffc7e	-0.019529577
249	0x3d05127d	0.032488335
250	0x3d77eedf	0.06053054
251	0x3d98515f	0.07437395
252	0xbe173107	-0.14764796
253	0xbd0c0db5	-0.03419276
254	0xbe0ca9db	-0.1373667
255	0x3d9f3809	0.0777436

bias f4 [64]
0	0x3e0a2d45	0.13493831
1	0x3d3afe16	0.04565247
2	0x3d1ae953	0.03782017
3	0x3d43e5d8	0.047826618
4	0x3d4e71d7	0.050401535
5	0x3d04009e	0.03222715
6	0x3e489e84	0.19591719
7	0x3e34bad8	0.176494
8	0x3e30c938	0.17264259
9	0x3d7d6127	0.06186023
10	0x3db186f3	0.08668318
11	0xbdb7d40a	-0.0897599
12	0x3e585052	0.2112439
13	0x3dc18366	0.094488904
14	0x3d80fedb	0.0629861
15	0xbacd9b70	-0.0015686583
16	0x3b705a8a	0.003667506
17	0x3e95e6f2	0.2927776
18	0x3d6e7860	0.058220267
19	0x3d89defa	0.067319825
20	0x3e3a9b74	0.18223363
21	0xbb2db540	-0.0026505738
22	0xbd0bea17	-0.034158792
23	0x3df0bdce	0.11754952
24	0x3dfb3e33	0.12267723
25	0x3e0bf4b6	0.13667569
26	0xbdce0266	-0.10059051
27	0xbdbc255a	-0.09186812
28	0x3e31d82b	0.17367618
29	0xbd2835ff	-0.04106712
30	0x3e075ddc	0.13219398
31	0x3d3343b0	0.043765724
32	0xbceadcc8	-0.02866973
33	0x3e98c7d1	0.29839948
34	0x3e9e421b	0.3090981
35	0x3ca82718	0.020526454
36	0xbdc6b8fb	-0.09703251
37	0x3e9538a4	0.29144776
38	0x3e4a9d18	0.19786489
39	0x3e226d3c	0.15861982
40	0x3de3daee	0.11125742
41	0x3c8763e1	0.016527118
42	0xbd9be571	-0.07612122
43	0x3cb13d08	0.021635547
44	0x3e0bddef	0.1365888
45	0xbdee39bd	-0.116321065
46	0xbdac5f25	-0.08416585
47	0xbd340e49	-0.043958936
48	0x3e12aec6	0.14324483
49	0x3bdb3ac1	0.0066903536
50	0xbdbe2c5c	-0.09285805
51	0x3e272403	0.16322331
52	0x3d9e7a03	0.07738116
53	0xbd4ee131	-0.050507728
54	0x3d03f48b	0.032215636
55	0x3c7e96fa	0.015538925
56	0x3c91e124	0.01780755
57	0x3e195709	0.14974608
58	0x3e56346f	0.2091844
59	0xbb8f62f5	-0.0043758103
60	0x3df6736d	0.120337345
61	0xbd308bea	-0.043102182
62	0x3d9866d9	0.07441492
63	0x3d03a4ff	0.032139774
