Eyantra/Task1/Part a/GG_3895_Task1A/task_1a_trained_model.pth (torch, 9825 bytes, 5 tensors)

weight f4 [4, 8]
00000000: 1c86 9a3e 5594 e93e c111 da3e fc78 57be
00000010: 89f2 0e40 9ade c6bd 55ea b2bd 42ef 06bf
00000020: 54bb 323d 3670 393f 5990 da3d 79c0 3c3e
00000030: 259a 5cc0 e7eb a83e f0ef c03e a5a3 8e3e
00000040: 1265 7740 19ff ae3d 7d15 e5bd a74e be3d
00000050: 183f 963d 7804 31be 901e 383d 8613 063f
00000060: 4b9e cebd e387 1b40 8266 b0bd 96b9 3fbd
00000070: df47 6fc0 8114 70bf a786 1ac0 e07c b03e
0.30180442 0.4562098 0.4259167 -0.21042246 2.2335532 -0.09710427 -0.087361015 -0.5270883
0.04363568 0.72436845 0.106720634 0.18432797 -3.4469082 0.3299248 0.37683058 0.27859226
3.8655438 0.0854475 -0.11185739 0.092923455 0.07336253 -0.17286861 0.04495102 0.5237354
-0.10088786 2.4301689 -0.08613302 -0.046807848 -3.7387617 -0.93781286 -2.4144685 0.34470272

bias f4 [4]
00000000: 6ff5 acbf 548d e93e 05a5 84c0 6863 b1be
-1.35124 0.45615637 -4.145144 -0.34646153

weight f4 [2, 4]
00000000: f923 853e 0305 283f a716 50c0 766e 89bf
00000010: 2298 30bf 543d a7bf 9a04 debe 65bc afbe
0.26004007 0.6563265 -3.2513826 -1.0736835 -0.68982136 -1.3065591 -0.43362886 -0.3432342

bias f4 [2]
00000000: 428e 1d40 dc63 433f
2.4618077 0.7632425

weight f4 [1, 2]
00000000: aa45 d9bf 1a22 b03f
-1.6974385 1.3760407
